pokernet-params-serena/param-1000.npz (npz, 2575 bytes, 6 tensors)

arr_1 f8 [5]
0	0xbfbf79e5cfdd88a6	-0.1229537613376431
1	0xbfc2cd71b4598fe5	-0.14689465814728844
2	0xbfc2004f95e495aa	-0.14063448733319933
3	0xbfc29bc9d2da059e	-0.14537928386202464
4	0xbfc2971dce1da619	-0.14523670734642805

arr_0 f8 [9, 5]
0	0xbfc270bc18acdcf1	-0.1440653915867425
1	0xbfc242a7da69f3eb	-0.14265916981449264
2	0xbfc2ce98202a6fca	-0.14692975588411478
3	0xbfc2b1a1b17be66c	-0.14604588667116347
4	0xbfc19f3d5778fccf	-0.13767210742114463
5	0xbfc0e806b8523a13	-0.13208087921198394
6	0xbfc039dbe208af9e	-0.1267657140427873
7	0xbfc10dcced167ccd	-0.13323365761332298
8	0xbfc1699505f59b13	-0.13603461066232878
9	0xbfc0f659635b89be	-0.13251798011249422
10	0xbfc2af14d2626d0c	-0.14596805832557214
11	0xbfc19592fa0179f9	-0.1373771401149069
12	0xbfc2e1f4892a9c5f	-0.1475206060178804
13	0xbfc45cfa3ed907ad	-0.15908744877566275
14	0xbfc13e5935138486	-0.13471522418607068
15	0xbfc374e28f6712a7	-0.152004547138991
16	0xbfc22bf3b66611e3	-0.14196630865275414
17	0xbfc280acace26515	-0.144551834503354
18	0xbfc39130beb2be5f	-0.1528683596748008
19	0xbfc228515292410a	-0.14185539752771376
20	0xbfc3e3515978d302	-0.1553746878504612
21	0xbfc47dce51d19d99	-0.16008929247912532
22	0xbfc2de62044abeae	-0.1474115868527312
23	0xbfc3ae6399ea1df3	-0.1537594319854488
24	0xbfc2996355e2aad1	-0.14530603116630528
25	0xbfc0cade32d35148	-0.13119103891097894
26	0xbfc14aa0ab10a4a4	-0.13508995392593193
27	0xbfbe9b539c7874be	-0.11955759592133838
28	0xbfc050d66ce32782	-0.1274669677425742
29	0xbfc12ec2bdd88cff	-0.1342395235998097
30	0xbfbfd304244bc185	-0.1243136013615694
31	0xbfc013b7f179fd1e	-0.12560176173062926
32	0xbfc0ebe5a0de305f	-0.13219900469664744
33	0xbfc1a3a8661604b9	-0.13780693993252216
34	0xbfc0b2286d57aa76	-0.13043694819437562
35	0xbfc1090af8806409	-0.1330884660135612
36	0xbfc0bf26292ffc95	-0.13083340655427791
37	0xbfc1759bc7c7eac3	-0.13640162711074852
38	0xbfc0574ee6b819cc	-0.1276644350584334
39	0xbfc1bd2aa3c13f9f	-0.13858540531009297
40	0xbfc0d89691879ecb	-0.13160974603601114
41	0xbfc11d364215edbd	-0.13370397784079371
42	0xbfc1ad4d666e6aa7	-0.13810126782921836
43	0xbfc16f69b4b757ae	-0.1362125522998076
44	0xbfc08704b7855190	-0.1291204353425539

arr_3 f8 [4]
0	0xbffbfe34c0751314	-1.749562026773849
1	0xbffde8c4783b74a0	-1.8693279930660438
2	0xbffb7cb7ed35e20c	-1.7179488435778039
3	0x400afc8049b573dd	3.373291564798349

arr_2 f8 [8, 4]
0	0xbfd7a1a5f910307f	-0.36924123118001967
1	0x3f704a79d8db30f3	0.003977275815213443
2	0xbfa9275dabec77d2	-0.049128463017254057
3	0x3f89078f400f14f6	0.012221449987814808
4	0xbfbd8bd75e75ea5e	-0.11541505867163823
5	0x3fb9bcd61db958a8	0.10053766465839209
6	0x3fab2ed188fce0a4	0.05309157178129567
7	0x3fb7a82360e89aa3	0.09240933528836108
8	0xbfe0244eddf68e06	-0.50443213798684
9	0xbfb0faf1d96252ae	-0.06632911259868976
10	0xbfa6e4ec03d7a406	-0.044715285748516506
11	0xbfa07cf0abed0b5a	-0.032203217494063366
12	0xbfd7e8c27382acde	-0.3735815170318356
13	0xbf95b0fa61167657	-0.0211829301602989
14	0xbfa6e9164536c0a9	-0.044747062634429575
15	0xbfa244ec6f3b1d1a	-0.03568209512519101
16	0x3f9b624887529faf	0.0267421085924579
17	0x3fabe40e88e31af7	0.054474310121397744
18	0x3fc6d5474c7c614d	0.178383743616687
19	0x3f925cb45f276e43	0.017931764896145685
20	0x3fa2c54d6ff5fa76	0.036661548535438834
21	0x3fa7716c97775f35	0.04578723286584677
22	0x3fc46c5924f14a0d	0.15955652526697897
23	0xbf763a1d896d8e5a	-0.005426516893610145
24	0x3f960192b695e2f1	0.021490375894674455
25	0x3fabf596cee74087	0.05460807109523196
26	0x3fc623170a777fba	0.17294586192201483
27	0x3f838a07167a16c4	0.009540610669556478
28	0x3fb83967e715b54a	0.0946259440585965
29	0xbfd56f90275db65f	-0.3349342712816447
30	0xbfd2bcf3669b7f80	-0.2927826406503229
31	0xbfd36271cbd3f39a	-0.30288357644149644

arr_5 f8 [8]
0	0x3fd9431b33cc4e2f	0.3947208410110958
1	0x3fd58115fd16adf1	0.3360037776535299
2	0x3fc76ddc899b38aa	0.1830402061372685
3	0x3fcf06ce194bcfd5	0.24239517436183058
4	0xbfc34133ba355f95	-0.15042730896197712
5	0xbfc07ba1589573a2	-0.128772896055037
6	0xbfc2903a73759b42	-0.14502649915376692
7	0xbfb8c0fc383e02b0	-0.09669472096539766

arr_4 f8 [12, 8]
0	0xbfb4dfbeb70ce954	-0.0815390774631955
1	0xbfb15979729e4a74	-0.06777152107523837
2	0x3fc094d474852b99	0.12954192819082946
3	0xbf96041099f6908f	-0.02149988116947604
4	0xbfd3452225e6af60	-0.30109456731110207
5	0xbfd307b9b51cdb50	-0.2973465222052498
6	0xbfd32574ab9ed115	-0.2991611171703579
7	0xbfcf30dac4fc4008	-0.24367842310357468
8	0x3fa3d9030c5890e7	0.03876504445750744
9	0x3fa3619b88e97a17	0.03785406156815812
10	0xbf9d7b46e8563fa6	-0.028790576868743444
11	0x3f80275d93402f51	0.007887583786235249
12	0xbfc5bfcb695b518e	-0.1699156059681965
13	0xbfc7420e8e646601	-0.18170339539283023
14	0xbfc52696837c394d	-0.1652401105897731
15	0x3fbc5630df74c499	0.1106901689097576
16	0xbfb2d18aacd83128	-0.0735098525985377
17	0xbfb91da7a2d5969c	-0.0981087467713117
18	0xbfcfc713084d40af	-0.24826276688918855
19	0xbfb3066ff7145735	-0.07431697637761377
20	0xbfd64b9a6b5d5c9a	-0.3483644531710951
21	0xbfd4088b145e42fe	-0.31302144040186863
22	0xbfd5360670e40380	-0.3314224340866119
23	0xbfd92cbd3a875a13	-0.3933556624955667
24	0x3fe8cfb28ab1c5ed	0.7753536900401606
25	0x3fe80745c670f93f	0.7508877635771468
26	0x3fda9f6cd9bcf85b	0.415980541834761
27	0x3fe08592faf0515a	0.5163054371974269
28	0xbfc3ff0e37529734	-0.156221177113531
29	0xbfc2b54ef48c9376	-0.14615809384227035
30	0xbfc345bf0528f2ff	-0.1505659842677218
31	0xbfad1e2beb76df6d	-0.05687081574745787
32	0x3fd6f210465897ca	0.35852438802464504
33	0x3fd4a15601a62e37	0.32234716568993654
34	0x3fc40664e80f035e	0.1564451344584325
35	0x3fc97f45e5021b6a	0.19919656450312156
36	0xbfc2951317509e9b	-0.14517439497398218
37	0xbfc1a77b6a56c0ef	-0.13792364780739017
38	0xbfc20c70a0237fa9	-0.14100463694830737
39	0xbfbb984e4336f75c	-0.10779275074943712
40	0x3fc2696b7fa7ba82	0.14384216054118687
41	0x3fbe01e6fe32eaea	0.11721652704265365
42	0x3fa43010cbac51ef	0.03942921148533062
43	0x3fb138d1a46e5932	0.06727323784284492
44	0xbfc18b0ec57a7c1c	-0.13705620424750087
45	0xbfc130b62a0835d7	-0.13429905941340678
46	0xbfc089a729bd88c5	-0.12920083559135356
47	0xbfbde6a04a637dad	-0.11680032554749316
48	0x3fc30b0836b79e08	0.14877417251339886
49	0x3fbf475fa10f932c	0.12218282396459007
50	0x3fa2ab8f003f3055	0.03646513822568013
51	0x3fb0aabde9cf62ba	0.06510531385664367
52	0xbfc1aeb1104b54af	-0.138143666225607
53	0xbfc222d02973f640	-0.14168741249152284
54	0xbfc120bd3d96c503	-0.1338116217353119
55	0xbfbbdeedfcba14bb	-0.10887038631524863
56	0xbfc32e86f8a90d94	-0.14985739843005474
57	0xbfc37f4716810668	-0.15232170676067658
58	0xbfc279d30a1aa5b5	-0.14434278481830423
59	0xbfc27015dc0ddf99	-0.1440455746157994
60	0xbfc097519b4fca34	-0.12961788257196505
61	0xbfc17e789e194648	-0.1366720935789536
62	0xbfc050c26c9bdff1	-0.12746458342712644
63	0xbfc107aa04d2a18e	-0.13304639087187947
64	0xbfc3f350a8a87601	-0.15586288676506402
65	0xbfc2389cf699fed1	-0.14235269585696256
66	0xbfc1bd5c190a09fd	-0.13859130118005672
67	0xbfc24e79b53b1e8c	-0.14301987981001607
68	0xbfbff29700a7aff2	-0.12479537740699678
69	0xbfc04d2aae131bca	-0.12735494136560838
70	0xbfc12077c1fabc6c	-0.13380333873417116
71	0xbfc0c32d168ba6ed	-0.1309563026509787
72	0xbfc3545f68cf1cb8	-0.15101235025051607
73	0xbfc290d94bb636ac	-0.1450454349218736
74	0xbfc1e57a42fd9d1c	-0.1398156001189158
75	0xbfc2b1263376cd48	-0.14603116524595294
76	0xbfbebf9842a46bfe	-0.12011100413330664
77	0xbfc0aaebf49cfbb7	-0.13021611637119943
78	0xbfc10db024fae03d	-0.13323022657073294
79	0xbfc15388fc503370	-0.13536178894028295
80	0xbfc47d5cd4909ec3	-0.16007576350351913
81	0xbfc350453fb626cc	-0.15088716135897184
82	0xbfc327a6ac04976e	-0.14964755439103378
83	0xbfc28c64617c7346	-0.1449094272619737
84	0xbfc065f84a489326	-0.12811187388538164
85	0xbfc0a77018d712f5	-0.130109798554393
86	0xbfc0a62fe661a0db	-0.1300716280850399
87	0xbfc144866727a5e4	-0.1349037173925317
88	0xbfc3ac705e001399	-0.15369991865022994
89	0xbfc2a7f339873b09	-0.14575043019291226
90	0xbfc0ab444d4b41f6	-0.13022664808387646
91	0xbfc1ae1b807613c9	-0.13812583706399398
92	0xbfc0d391fbbfdb2a	-0.1314566115613272
93	0xbfc1a552f80cffa0	-0.13785779106001161
94	0xbfc140c28c8fc511	-0.1347888170562688
95	0xbfc03ffb670e80bd	-0.12695257694304543
