agent_params_nolimit/2fcba191-8d9b-4beb-b534-0589ae95fbe0.npz (npz, 2338 bytes, 6 tensors)

arr_1 f8 [8]
0.08305987500730483 -0.3397285373408663 -0.09384927934630442 0.07626769178250664 -0.5009579859872492 -0.558595892984448 0.018755678996486915 -0.04235410516663251
00000000: 2027 c476 6943 b53f 6467 59c3 1cbe d5bf
00000010: e3a8 8ba1 8106 b8bf 8c80 f289 4786 b33f
00000020: 4387 cf0a d907 e0bf 338a 817e 04e0 e1bf
00000030: c7e2 9d4f b034 933f 1f85 15f1 6faf a5bf

arr_0 f8 [14, 8]
-0.0646641787057601 0.09175233469297565 -0.21156253114724788 0.09599558910368988 0.1762910101594779 0.5688252962293583 -0.14061155787276533 -0.37170966765595786
-0.2109533142965147 0.8757437241951831 -0.22187792118987876 1.4226353121988304 0.9475500454605649 1.6679524530086067 -0.3312543116314295 -0.6099995634504379
-0.7047349932578505 -0.8766071935993184 -1.2076703772993844 -0.21230254980998373 0.19718250193526796 -0.009492834365368661 -0.29208554206589443 -0.6643443220318463
-0.931233922178936 0.6197255919571273 0.16740501649179768 1.0934011609252832 0.1651442926084013 -0.029156870150884945 -0.5984061301918512 -0.42609656360895676
-0.05095699351545516 0.06342930115094338 0.2902053760834184 -0.783796720125275 0.01566851757051039 -0.01617481205214761 0.029962030054007174 -0.13834087162535139
0.097085490900373 1.9007645181149446 0.3682689532015962 0.3717745604013996 0.6899121103201871 -0.03754790850723332 0.21832521790293108 0.22654768514069457
-0.020692910212448592 0.048605255728983665 -0.026732218862356286 -0.02388225341169088 -0.0029193905010320917 -0.021911838545828573 -0.016729010322441906 -0.04256928155958536
-0.32712486742807345 0.3158177062671507 -0.2577398142932361 3.457366835780549 0.6680546121545232 0.2252388635775878 -0.2371903927107495 -0.4331187908551812
0.0403956420972758 -0.12413579811296005 -0.02333744170084408 -0.06664031257542968 -0.3033441893924772 -0.24509755310194137 -0.019184175320325087 0.07935014408585477
0.4250731664453301 0.43690669350227007 0.7523417599806141 -2.9078690635686675 -0.1724613766218691 -0.05189574076877216 0.9691286412361286 1.704575860858134
1.6541751928298605 2.537982592051838 1.3066192475074156 -1.9994898175022013 0.3167966258721394 -0.07203103606149994 0.953602471930014 1.258088131616026
-0.21714247746723037 -0.036167716596306174 -0.17501975970563508 0.031105478950191057 -0.04326569919585912 -0.06390045944530465 -0.09087736588893408 -0.038002886233875106
0.20785382908362557 -0.6555359019302386 -0.1520807597585705 0.20195093063114913 -0.9490663751964443 -1.023640260652329 0.08744723967034743 -0.019843293417023317
-0.03448688464166877 1.1875764541298748 -0.4175433823331849 0.06600966668319026 0.28995533314459143 1.1944328221072846 -0.4458874893150317 -0.29464722618995237
00000000: 8691 c3e4 d48d b0bf a385 d6bc 147d b73f
00000010: 840f 2b24 7b14 cbbf d0b6 c2bb 2a93 b83f
00000020: 885c 9b2d b490 c63f d429 8e1b d133 e23f
00000030: d766 403d 8fff c1bf 9b1e 8c58 17ca d7bf
00000040: 9673 f1a8 8400 cbbf ca0e e3b3 1706 ec3f
00000050: f284 9be7 7e66 ccbf aa75 c03e 1dc3 f63f
00000060: 3172 1279 5452 ee3f 7247 4fe9 eeaf fa3f
00000070: 406c c748 4533 d5bf 4b01 f3cd 1d85 e3bf
00000080: b974 8c66 308d e6bf 3551 7e87 2a0d ecbf
00000090: d694 6d2c 9e52 f3bf 0749 25de ba2c cbbf
000000a0: 37e5 93b6 463d c93f 1232 2aa9 fa70 83bf
000000b0: 3ead b38e 87b1 d2bf 501f 0d06 4f42 e5bf
000000c0: 1be6 1515 abcc edbf 3d67 bec3 cad4 e33f
000000d0: de61 820f 876d c53f 0552 3937 927e f13f
000000e0: c2e3 efbb 7223 c53f d8cf 016f 4cdb 9dbf
000000f0: 23cc dc9c 2426 e3bf 6adc 6885 2a45 dbbf
00000100: 947f 4df9 0817 aabf f92a 0d16 e73c b03f
00000110: d7b4 d991 b992 d23f cbcd f4db dc14 e9bf
00000120: aa27 2b6a 680b 903f f2b5 2143 2190 90bf
00000130: 949e d0cc 5dae 9e3f d15e aa57 27b5 c1bf
00000140: 184d 5540 98da b83f d536 2b0e 8869 fe3f
00000150: 3d83 88f1 b791 d73f 9529 9a86 27cb d73f
00000160: c610 de8f c213 e63f afbe 24be 7a39 a3bf
00000170: 3680 64ab 14f2 cb3f 04f7 54b9 83ff cc3f
00000180: a772 7cb2 8530 95bf 5016 8abf c9e2 a83f
00000190: 94a7 0dd7 b05f 9bbf b396 6ee5 9674 98bf
000001a0: 30ea 3cd7 67ea 67bf 025b cc97 0e70 96bf
000001b0: a3d6 eae0 6821 91bf 4bab 3910 a4cb a5bf
000001c0: 5af6 d323 9def d4bf c391 fa77 5b36 d43f
000001d0: 5c0f 5122 cf7e d0bf a49e 8ff1 afa8 0b40
000001e0: 18a9 e410 b460 e53f 134e 6d88 a0d4 cc3f
000001f0: c81c cf39 415c cebf 6763 80e0 37b8 dbbf
00000200: 67dd 6ad3 bcae a43f 2074 2819 5dc7 bfbf
00000210: 857d 8233 c5e5 97bf e84f 1beb 560f b1bf
00000220: 16d4 37bf fd69 d3bf dc83 734b 5b5f cfbf
00000230: 95f6 6736 04a5 93bf 2b19 c881 4a50 b43f
00000240: 068d 1215 6634 db3f 4cba ff7d 47f6 db3f
00000250: aa04 d106 2f13 e83f de9e 08db 5043 07c0
00000260: 2400 35e2 3613 c6bf c5a0 ce1a 1492 aabf
00000270: 203c 7711 1a03 ef3f dbfc 7e56 f145 fb3f
00000280: 9ef0 3068 8077 fa3f 8c70 35d1 c94d 0440
00000290: 4be5 8595 e9e7 f43f 1fb6 ed08 e9fd ffbf
000002a0: b6a7 e65a 6546 d43f 1e5f 2e40 a070 b2bf
000002b0: 965f ca54 e983 ee3f da6c 4c05 2121 f43f
000002c0: 68a7 a51f 53cb cbbf c67d e72f 9384 a2bf
000002d0: 1f74 0b28 0c67 c6bf 501b 455b 1dda 9f3f
000002e0: 6369 2bf6 eb26 a6bf 5857 84cf c75b b0bf
000002f0: 7c89 7032 bd43 b7bf 6963 0e43 1d75 a3bf
00000300: 179b 214b f49a ca3f 999d 846d 26fa e4bf
00000310: 40c7 c1e0 6177 c3bf 0191 3a31 87d9 c93f
00000320: bc76 6672 c05e eebf 42ee 259c d460 f0bf
00000330: 3276 823a f162 b63f 688d 15e1 cc51 94bf
00000340: 9891 5ad3 43a8 a1bf 9fcc ff2a 5000 f33f
00000350: 7010 f2e0 07b9 dabf 25c9 9f6f 02e6 b03f
00000360: 1809 4ad0 a08e d23f 3184 4397 651c f33f
00000370: 5b6e 13ae 6b89 dcbf 0ff3 150a 80db d2bf

arr_3 f8 [3]
0.9179755332872259 0.666121975457685 -1.6847268614043043
00000000: bee5 bf39 0e60 ed3f 029b 7708 df50 e53f
00000010: 92c9 4627 a4f4 fabf

arr_2 f8 [8, 3]
1.4066466346128506 0.1904472735466907 0.21840064784557495 4.946407634839567 4.971988644612267 5.0227466307343365 3.012548490647171 4.197492710104689
4.203563763162712 -0.8079840057155754 0.23545814215593278 0.4995051459524719 -0.7809885151121821 0.6866790627404029 0.6762255275128766 -0.45897297396374565
-0.35344595747196 0.7104520808958734 3.3904224537035277 3.304259962576987 3.2697224894693075 0.3020482282673289 0.30862254954873464 0.224374093239811
00000000: ec0c cbe6 9f81 f63f 5969 bf85 9360 c83f
00000010: b202 f66b 8df4 cb3f 5948 4115 1fc9 1340
00000020: b0c5 c2fd 50e3 1340 8564 8ce4 4a17 1440
00000030: d38c e705 b319 0840 6764 6c87 3bca 1040
00000040: f7bc e504 73d0 1040 c4a9 0746 01db e9bf
00000050: c17d 110e 7e23 ce3f 372c 836e e4f7 df3f
00000060: 69ab 5ea0 dbfd e8bf c02c aa5e 46f9 e53f
00000070: c06b acb7 a3a3 e53f 7504 3b2e d05f ddbf
00000080: ddb5 0fcb db9e d6bf 6255 9a00 06bc e63f
00000090: ed3e b2ce 951f 0b40 b400 e6d8 1f6f 0a40
000000a0: 8c21 ba43 6428 0a40 5444 8e17 c254 d33f
000000b0: 57ad 47cb 78c0 d33f 2e6f 4450 4ab8 cc3f

arr_5 f8 [1]
250.06997538559077
00000000: 6514 053d 3d42 6f40

arr_4 f8 [11, 1]
2.151382711636254 7.533858739594719 2.929369060010404 1.1882978830080482 3.9455892814355575 -0.2863899390893211 2.4295608637342854 0.805991851248754
0.023663503352378375 0.007758846554727409 0.0670946476778811
00000000: 9442 9d23 0836 0140 eff8 8cdd ab22 1e40
00000010: 8645 b50b 596f 0740 43cf 16a4 4403 f33f
00000020: fcb5 f91c 9190 0f40 36b1 9277 3654 d2bf
00000030: ca0a 2b9b bd6f 0340 b296 3e6c afca e93f
00000040: ef6c 07d4 3e3b 983f 37d7 5083 bdc7 7f3f
00000050: 415d 8365 1d2d b13f
