agent_params_nolimit/33d38df4-e5a4-4712-b882-0cd21c2f0d5e.npz (npz, 2586 bytes, 6 tensors)

arr_1 f8 [5]
-0.03596375094132745 -0.0031061504949175364 -0.01752883605454483 -0.013190661349392379 -0.03802175462046399
00000000: f4db 443c d769 a2bf 9916 59d9 1172 69bf
00000010: a767 5d46 14f3 91bf f6b2 dd98 b403 8bbf
00000020: c24a 4361 9677 a3bf

arr_0 f8 [9, 5]
-0.042061491645297544 -0.06850811970984647 -0.07885086877601104 -0.06437324152761542 -0.07093659265297733 -0.02499841983117811 -0.02653628750791878 -0.025791967034799912
-0.02763944446097436 -0.021279622418381473 -0.060465823487543306 -0.10530671283639141 -0.12491299571903075 -0.08641545578144677 -0.12305749171559173 -0.052852908514481996
-0.08759512223493157 -0.09814994403226532 -0.07967624096049966 -0.09175207309603091 -0.12370684255956403 -0.24775299289287028 -0.2955549871681071 -0.21526788309376318
-0.2819156876091829 -0.03166131867169329 -0.032637134209269114 -0.03346139353244407 -0.03551440262255906 -0.030553180289007536 -0.02227423053876681 -0.01941810897369404
-0.0182200920611731 -0.022793736265156322 -0.02607967243065677 -0.02928560401416629 -0.048458436257962915 -0.04639638339662057 -0.03472346290672917 -0.038499014404941426
-0.03136080854702302 -0.029353088683738173 -0.04140288055006977 -0.02940813557967992 -0.041087047810520735
00000000: 2837 1376 1589 a5bf de0b aa85 bf89 b1bf
00000010: b376 a70e 922f b4bf fc3e 19c7 c37a b0bf
00000020: 16c2 8889 e628 b2bf 3da0 818e 2f99 99bf
00000030: d7da 031c 542c 9bbf 40e9 a79b 3569 9abf
00000040: e970 28b8 834d 9cbf eac5 6e49 53ca 95bf
00000050: c735 cf5c 60f5 aebf 037b ae77 61f5 babf
00000060: 7468 754f 4cfa bfbf 7443 73c4 521f b6bf
00000070: ed3d 721e b280 bfbf 81e8 2253 890f abbf
00000080: 6ec4 4949 a26c b6bf 120a b9cf 5a20 b9bf
00000090: 428d 3181 a965 b4bf b5a3 4959 107d b7bf
000000a0: 13b2 156b 40ab bfbf fe01 fbbc 5eb6 cfbf
000000b0: 4ba1 0377 5fea d2bf 9b28 e2e2 e58d cbbf
000000c0: d5b0 a018 e80a d2bf 0e7f 7c90 e935 a0bf
000000d0: 28c1 2080 d0b5 a0bf 9405 cd0d da21 a1bf
000000e0: 580b 9a9b f12e a2bf 7b33 8538 5549 9fbf
000000f0: af8c d44e 0ecf 96bf 0afe f73b 57e2 93bf
00000100: d4a2 21ae 49a8 92bf d8fe 3fbf 3d57 97bf
00000110: 9b62 b830 a1b4 9abf cd13 f09d 0bfd 9dbf
00000120: d7f1 e24d 8bcf a8bf e2ac ae4a 44c1 a7bf
00000130: d731 2d13 46c7 a1bf 324c 988f 24b6 a3bf
00000140: 4bd1 2b1e 860e a0bf 17a4 bb6f bc0e 9ebf
00000150: ec71 d823 c232 a5bf e148 3492 2a1d 9ebf
00000160: de4f 458d 5c09 a5bf

arr_3 f8 [4]
-3.0434715920323785 -3.3952894258119044 -1.809277624060065 4.269263595596417
00000000: 47ac 50a2 0759 08c0 b388 a280 8d29 0bc0
00000010: 9d8f 0b18 cdf2 fcbf 245c 04d6 b913 1140

arr_2 f8 [8, 4]
1.179240611434806 1.5921995657093253 0.5709916933683752 -0.4970928078290814 0.4919083707380488 0.263733638578973 0.9486220672473381 -0.24605472715081242
0.2114906635008732 0.10029332081981601 0.2643358520998335 -0.046564200315153424 0.4286265947797512 0.008324619943935458 0.03775939575097945 -0.093903204829016
0.5328527512710011 0.3304004699464676 1.0677404781168136 -0.2452138179624356 0.514493066929785 0.3147408465165998 1.1416179065697587 -0.2179336336669338
0.5696438391926445 0.3587200467874563 1.1530709807374704 -0.22851118075254276 0.038941329728115114 0.017281283420723246 0.08723706817218216 -0.04983291676833126
00000000: fca3 4367 2bde f23f cfd4 7640 a679 f93f
00000010: 2ec1 295f 9045 e23f 52f9 2c5a 5ed0 dfbf
00000020: 41b5 3c3f 6d7b df3f 3f50 230e 03e1 d03f
00000030: 5beb 62aa 1c5b ee3f dfc8 11a7 b87e cfbf
00000040: bca2 9245 2012 cb3f 10a8 edb4 d2ac b93f
00000050: 0376 fbeb e0ea d03f 4334 094b 43d7 a7bf
00000060: 9097 b13d 9e6e db3f 5d62 4993 7f0c 813f
00000070: c5fe bb13 3355 a33f 3def ba59 0a0a b8bf
00000080: c05c 8936 210d e13f f132 4003 4825 d53f
00000090: ad08 220a 7715 f13f cd85 5698 2a63 cfbf
000000a0: e76d 0f2a ba76 e03f 0544 a0ca b624 d43f
000000b0: ebeb 5323 1144 f23f 6a22 a6d2 3fe5 cbbf
000000c0: c968 76b7 853a e23f 2cca 57ed 44f5 d63f
000000d0: ccbe 838e fa72 f23f 3d1f 0db8 da3f cdbf
000000e0: 5b3e 4a33 1ef0 a33f 49e9 7f4c 2fb2 913f
000000f0: e266 cc22 2b55 b63f 338c 9137 b383 a9bf

arr_5 f8 [8]
-0.28121450854204766 -0.37195700231325807 -2.3277034857011643 0.16465760250275766 -0.4322152775090251 -0.39312275934979957 -0.4420507126530996 -1.456047323455771
00000000: dc52 5623 6bff d1bf 6f08 1dbe 24ce d7bf
00000010: 40f9 4e01 239f 02c0 15c0 e414 8013 c53f
00000020: a4e6 6e44 6aa9 dbbf 6a1f ae5c ec28 d9bf
00000030: 0630 8112 8f4a dcbf e2bb 3a47 f84b f7bf

arr_4 f8 [12, 8]
-0.22577489432436534 -0.5703806037255426 -0.04084438830455695 -1.0698667887155664 -0.5849089674498846 -0.639190572160559 -0.6077442881111078 0.04209624413551075
-0.14300013159642563 -0.37321724289565156 0.047973273028979746 -0.8180586769712335 -0.33133630612360165 -0.3161286129128666 -0.301325808990437 0.1230496423439841
-0.24441560877829388 -1.0328608137192157 0.3499448698679805 -1.6752390546727196 -0.9822435822956443 -1.0671663140038181 -1.001985754029981 -0.20259952836313105
-0.3952335322714084 -0.7510368847064928 -2.4955556960483554 0.29322490685184016 -0.8256202449764796 -0.7866648780213 -0.8415958929755589 -1.5132043656394034
-0.3370214572261309 -0.4473946498223906 -2.189147644430258 0.02195269147054245 -0.48552807825553873 -0.45889113771075907 -0.48847571180318217 -1.1752095896303123
-0.16096198479767046 -0.20253937400879948 -2.1351035482885954 0.07268623594995378 -0.22655483032705304 -0.2118407431958741 -0.22089360250574355 -1.136349217671641
-0.15860163755345041 -0.2061854169027744 -2.132326571473943 0.07052038256538536 -0.22592942303060734 -0.21272670001063246 -0.22051124893288523 -1.1363023817209597
0.001312880880682501 -0.012340561425247282 0.1566086805832619 -0.01364471010763624 -0.013819307078552721 -0.012548482727580074 -0.01631225343277029 0.03216792832502049
0.004385455612123545 -0.00474953149901118 0.2867943524100597 -0.012859172250578033 -0.012281516204835122 -0.004041032252399324 -0.0052739048865846775 0.07500799967614175
0.0038299104438646566 -0.0070288089243174135 0.3375752549626093 -0.020426180934797554 -0.008788964050686182 -0.006101206237799057 -0.005487921165847087 0.0909877168412239
0.0021730139665959262 -0.004257484344271271 0.2506223757917469 -0.016449634808188486 -0.004329336803990893 -0.010996177795088912 -0.006870894650190385 0.06312526768254295
0.004453260931590706 -0.0015591656534056232 0.32209204274368686 -0.020525695019807517 -0.006704949736171943 -0.010478893334882037 -0.003967569762562962 0.08818661427009296
00000000: c7c4 b015 31e6 ccbf 20c4 e8d2 8e40 e2bf
00000010: 5184 fc3f 8ee9 a4bf 26c2 49a3 2c1e f1bf
00000020: 44b3 ca02 93b7 e2bf 87ea 6ac9 3f74 e4bf
00000030: 8993 3826 a472 e3bf f561 b18f a38d a53f
00000040: 53e2 430c d44d c2bf 3191 2293 cae2 d7bf
00000050: 08ac 7bed f38f a83f 809d f963 892d eabf
00000060: e4cf b131 9d34 d5bf 4799 7281 733b d4bf
00000070: b57f c30b ec48 d3bf 7ae3 a66d 2e80 bf3f
00000080: 8ad7 2abb 0249 cfbf 57e7 830f 9986 f0bf
00000090: d719 df2a 7f65 d63f 12d2 8c77 c7cd fabf
000000a0: 3a4d d517 8a6e efbf d5a0 20fc 1c13 f1bf
000000b0: e0dd c936 2208 f0bf 1a99 4006 c8ee c9bf
000000c0: 3fd9 d895 814b d9bf 76ee 3c81 7e08 e8bf
000000d0: 5efe 9ee7 e5f6 03c0 7f48 5366 32c4 d23f
000000e0: 16dd e225 7b6b eabf 0f6d 80d2 5b2c e9bf
000000f0: e6e4 9882 5aee eabf e15e e9c7 1536 f8bf
00000100: 2389 3572 c291 d5bf 5f1f 592b 1da2 dcbf
00000110: 138c 17d7 5f83 01c0 9c5c b32f c47a 963f
00000120: d56c 595c e412 dfbf 9615 39ef 785e ddbf
00000130: 7470 c5a1 2f43 dfbf 3c86 1692 a8cd f2bf
00000140: a178 4dfe 669a c4bf d792 c269 cfec c9bf
00000150: dbc8 4b2b b114 01c0 7d3e 46ae 909b b23f
00000160: f0b4 80a9 bfff ccbf 5c49 fef3 981d cbbf
00000170: 8932 54d7 3d46 ccbf 15c2 6b84 7c2e f2bf
00000180: ae2a 31f7 0e4d c4bf a938 41a3 4864 cabf
00000190: a9fa c63b 010f 01c0 65da d1b0 9f0d b23f
000001a0: 1370 8f5d 41eb ccbf bd0d c4e5 a03a cbbf
000001b0: c58e 486d b639 ccbf 21bc fd67 4b2e f2bf
000001c0: 3e7e 8c1c 9f82 553f 30bf e21d 0246 89bf
000001d0: 1bfa afd4 c00b c43f 81d4 67fd c1f1 8bbf
000001e0: 3f68 a5ff 4b4d 8cbf 5d5d 6fd7 04b3 89bf
000001f0: 583d 12cc 28b4 90bf 63a6 4590 5078 a03f
00000200: 7301 eac6 7bf6 713f 2f6b 5aa7 3e74 73bf
00000210: 4ed6 11b3 d65a d23f 20ae 28e2 e855 8abf
00000220: 157c 8f33 0d27 89bf c0b1 db55 548d 70bf
00000230: 315a 2910 179a 75bf e422 8c69 b933 b33f
00000240: 7ad6 4b83 e75f 6f3f 523e 5b87 3dca 7cbf
00000250: 8e35 003e d59a d53f 2677 63cc 99ea 94bf
00000260: 7dad 4ec9 f2ff 81bf 61b6 1e14 94fd 78bf
00000270: 99ab e29e 807a 76bf 43b7 2b94 f84a b73f
00000280: 98f0 72fd 23cd 613f d19b 59c0 4b70 71bf
00000290: cff7 ea6e 320a d03f 9a16 214e 2cd8 90bf
000002a0: c3be c87f a3bb 71bf 1357 1600 2a85 86bf
000002b0: 5abb 11bd a724 7cbf b46d 3f40 fa28 b03f
000002c0: 7edf fc20 953d 723f c319 635f 9d8b 59bf
000002d0: b8b3 78f1 279d d43f 65d9 5913 b004 95bf
000002e0: de31 693d a676 7bbf f56a 5f41 f575 85bf
000002f0: 0135 ff65 4c40 70bf 052a 3ce0 6593 b63f
