agent_params_nolimit/39c74d3b-f5d2-4529-b0f0-d65e652d3e62.npz (npz, 2338 bytes, 6 tensors)

arr_1 f8 [8]
00000000: 2f3a d0f8 e689 b53f a062 d662 7dac d5bf
00000010: d495 7f1f 04c0 b7bf 9b93 fe0b c5cc b33f
00000020: c309 1cb5 12fe dfbf d107 40ce 34d7 e1bf
00000030: 052f ce57 a64e 943f 005f fdec 7422 a5bf
0.08413547110124207 -0.338652941246929 -0.09277368325236718 0.07734328787644389 -0.49988238989331196 -0.5575202968905107 0.019831275090424167 -0.04127850907269526

arr_0 f8 [14, 8]
00000000: 85a1 c5a0 c9c3 b0bf a475 d400 2047 b73f
00000010: 8317 2c82 752f cbbf d1a6 c0ff 355d b83f
00000020: 8954 9acf b975 c63f d4e7 0d84 122d e23f
00000030: d66e 419b 891a c2bf 9ba2 8c87 94d7 d7bf
00000040: 957b f206 7f1b cbbf cacc 621c 59ff eb3f
00000050: f18c 9c45 7981 ccbf aa54 00f3 bdbf f63f
00000060: 3130 92e1 954b ee3f 7226 8f9d 8fac fa3f
00000070: 40f0 c777 c240 d5bf 4b43 7365 dc8b e3bf
00000080: b9b6 0cfe ee93 e6bf 3593 fe1e e913 ecbf
00000090: d6b5 2d78 fd55 f3bf 0651 263c b547 cbbf
000000a0: 38dd 9258 4c22 c93f 08b2 3a89 a020 85bf
000000b0: 3e31 b4bd 04bf d2bf 5061 8d9d 0d49 e5bf
000000c0: 1b28 96ac 69d3 edbf 3d25 3e2c 0cce e33f
000000d0: df59 81b1 8c52 c53f 0531 79eb 327b f13f
000000e0: c3db ee5d 7808 c53f d30f 0a5f 1fb3 9ebf
000000f0: 230e 5d34 e32c e3bf 6a60 69b4 a752 dbbf
00000100: 919f 5171 f282 aabf fa1a 0b5a f206 b03f
00000110: d730 d962 3c85 d23f cb0f 7573 9b1b e9bf
00000120: 5ecf 45f4 2a67 8e3f edf5 2933 f467 91bf
00000130: 995e c8dc 8ad6 9d3f d066 abb5 21d0 c1bf
00000140: 193d 5384 a3a4 b83f d515 6bc2 2866 fe3f
00000150: 3dff 87c2 3a84 d73f 95a5 9957 aabd d73f
00000160: c6ce 5df8 030d e63f acde 2836 64a5 a3bf
00000170: 3778 634d 1ad7 cb3f 05ef 535b 89e4 cc3f
00000180: a2b2 84a2 5808 96bf 53f6 8547 e076 a83f
00000190: 8fe7 15c7 8337 9cbf aed6 76d5 694c 99bf
000001a0: 08ea 7e57 ffa8 6ebf fd9a d487 e147 97bf
000001b0: 9e16 f3d0 3bf9 91bf 48cb 3d88 8d37 a6bf
000001c0: 5a7a d452 1afd d4bf c30d fa48 de28 d43f
000001d0: 5c93 5151 4c8c d0bf 248e af4b 00a7 0b40
000001e0: 1867 6479 f559 e53f 1446 6c2a a6b9 cc3f
000001f0: c724 d097 3b77 cebf 67e7 800f b5c5 dbbf
00000200: 6abd 665b d342 a43f 1f84 2ad5 51fd bfbf
00000210: 80bd 8a23 98bd 98bf e75f 1da7 4b45 b1bf
00000220: 1658 38ee 7a77 d3bf db8b 74a9 557a cfbf
00000230: 9036 7026 d77c 94bf 2c09 c6c5 551a b43f
00000240: 0609 12e6 e826 db3f 4c36 ff4e cae8 db3f
00000250: aac2 506f 700c e83f 5eaf e880 0045 07c0
00000260: 2308 3640 312e c6bf c2c0 d292 fdfd aabf
00000270: 20fa f679 5bfc ee3f dbdb be0a 9242 fb3f
00000280: 9ecf 701c 2174 fa3f 0c60 552b 1a4c 0440
00000290: 4bc4 c549 8ae4 f43f 8feb 562a a400 00c0
000002a0: b623 e62b e838 d43f 1d6f 30fc 94a6 b2bf
000002b0: 961d 4abd 2a7d ee3f da4b 8cb9 c11d f43f
000002c0: 67af a67d 4de6 cbbf c39d eba7 7cf0 a2bf
000002d0: 1e7c 0c86 0682 c6bf 55db 3c6b 4a02 9f3f
000002e0: 6089 2f6e d592 a6bf 5767 868b bc91 b0bf
000002f0: 7b99 72ee b179 b7bf 6683 12bb 06e1 a3bf
00000300: 1893 20ed f97f ca3f 99df 0405 e500 e5bf
00000310: 3fcf c23e 5c92 c3bf 0289 39d3 8cbe c93f
00000320: bcb8 e609 7f65 eebf 420f e6e7 3364 f0bf
00000330: 3366 807e fc2c b63f 63cd 1dd1 9f29 95bf
00000340: 95b1 5e4b 2d14 a2bf 9fab 3fdf f0fc f23f
00000350: 7094 f20f 85c6 dabf 26b9 9db3 0db0 b03f
00000360: 1885 49a1 2381 d23f 3163 834b 0619 f33f
00000370: 5bf2 13dd e896 dcbf 0f77 1639 fde8 d2bf
-0.06548748183343463 0.09092903156530113 -0.21238583427492239 0.09517228597601536 0.1754677070318034 0.5680019931016838 -0.14143486100043984 -0.3725329707836324
-0.2117766174241892 0.8749204210675086 -0.22270122431755326 1.421812009071156 0.9467267423328903 1.6671291498809322 -0.332077614759104 -0.6108228665781125
-0.705558296385525 -0.8774304967269929 -1.208493680427059 -0.21312585293765823 0.19635919880759345 -0.010316137493043179 -0.29290884519356897 -0.6651676251595209
-0.9320572253066105 0.6189022888294528 0.16658171336412317 1.0925778577976086 0.1643209894807268 -0.029980173278559463 -0.5992294333195257 -0.4269198667366313
-0.05178029664312967 0.06260599802326886 0.28938207295574386 -0.7846200232529495 0.014845214442835871 -0.016998115179822127 0.029138726926332657 -0.1391641747530259
0.09626218777269847 1.89994121498727 0.36744565007392166 0.3709512572737251 0.6890888071925125 -0.03837121163490784 0.21750191477525657 0.22572438201302006
-0.02151621334012311 0.04778195260130915 -0.027555521990030803 -0.024705556539365396 -0.0037426936287066094 -0.02273514167350309 -0.017552313450116423 -0.04339258468725987
-0.327948170555748 0.3149944031394762 -0.25856311742091065 3.4565435326528746 0.6672313090268487 0.2244155604499133 -0.238013695838424 -0.4339420939828557
0.03957233896960129 -0.12495910124063457 -0.0241607448285186 -0.0674636157031042 -0.30416749252015174 -0.24592085622961588 -0.020007478447999605 0.07852684095818024
0.4242498633176556 0.43608339037459554 0.7515184568529396 -2.908692366696342 -0.17328467974954362 -0.052719043896446674 0.9683053381084541 1.7037525577304595
1.653351889702186 2.5371592889241636 1.3057959443797411 -2.0003131206298757 0.3159733227444649 -0.07285433918917446 0.9527791688023395 1.2572648284883514
-0.21796578059490487 -0.03699101972398069 -0.17584306283330958 0.03028217582251654 -0.04408900232353363 -0.06472376257297917 -0.0917006690166086 -0.03882618936154962
0.20703052595595106 -0.6563592050579131 -0.152904062886245 0.20112762750347463 -0.9498896783241189 -1.0244635637800035 0.0866239365426729 -0.020666596544697834
-0.03531018776934328 1.1867531510022002 -0.4183666854608594 0.06518636355551574 0.2891320300169169 1.19360951897961 -0.44671079244270623 -0.2954705293176269

arr_3 f8 [3]
00000000: 7eb7 b063 d351 ed3f c26c 6832 a442 e53f
00000010: b260 4e92 c1fb fabf
0.9162384936405343 0.6643849358109934 -1.6864639010509959

arr_2 f8 [8, 3]
00000000: e430 81a9 bb8b f63f 1b89 709b 71b1 c83f
00000010: 7422 a781 6b45 cc3f 57d1 ee05 a6cb 1340
00000020: ae4e 70ee d7e5 1340 83ed 39d5 d119 1440
00000030: d09e 42e7 c01e 0840 65ed 1978 c2cc 1040
00000040: f545 93f5 f9d2 1040 d461 9bc0 c9c6 e9bf
00000050: 839d c223 5c74 ce3f 0cde adbc 2910 e03f
00000060: 7963 f21a a4e9 e8bf b074 16e4 7d0d e63f
00000070: b0b3 183d dbb7 e53f 9474 6223 6137 ddbf
00000080: fc25 37c0 6c76 d6bf 529d 0686 3dd0 e63f
00000090: ea50 0db0 a324 0b40 b112 41ba 2d74 0a40
000000a0: 8933 1525 722d 0a40 35d4 6622 317d d33f
000000b0: 383d 20d6 e7e8 d33f f08e f565 2809 cd3f
1.4091145154262046 0.19291515436004478 0.22086852865892903 4.948875515652921 4.974456525425621 5.0252145115476905 3.0150163714605256 4.199960590918043
4.206031643976066 -0.8055161249022214 0.23792602296928686 0.501973026765826 -0.7785206342988281 0.6891469435537569 0.6786934083262306 -0.45650509315039156
-0.3509780766586059 0.7129199617092274 3.392890334516882 3.3067278433903415 3.272190370282662 0.304516109080683 0.3110904303620887 0.22684197405316509

arr_5 f8 [1]
00000000: d513 588b 3142 6f40
250.06854788973456

arr_4 f8 [11, 1]
00000000: 08d1 10ea b932 0140 29c0 c6c0 0421 1e40
00000010: fad3 28d2 0a6c 0740 2aec fd30 a8fc f23f
00000020: 7044 6de3 428d 0f40 973d f643 a86e d2bf
00000030: 3e99 9e61 6f6c 0340 81d0 0c86 76bd e93f
00000040: d4a6 ce0d 2294 963f cabe 6d6a 4a2b 793f
00000050: ba2b f533 56c3 b03f
2.1497686659223554 7.532244693880821 2.9277550142965056 1.1866838372941495 3.943975235721659 -0.2880039848032196 2.427946818020387 0.8043778055348555
0.022049457638479833 0.0061448008408288655 0.06548060196398256
