agent_params_nolimit/3a617f08-e08e-452a-b5d4-94241fdfb723.npz (npz, 2338 bytes, 6 tensors)

arr_1 f8 [8]
0	0xbfc88b06e3f00957	-0.19174276475684834
1	0x3fce6a733f9b502b	0.23762360196872243
2	0xbfb2e4477b4c66ca	-0.073795764543685
3	0x3fab055e3bf9ac22	0.05277533037300254
4	0xbfc22cefcb3e982d	-0.14199635910080258
5	0xbfc50e988273ce30	-0.1645079266523779
6	0xbfda2f8a61d3a489	-0.40915164521590747
7	0xbfaa847da1897b26	-0.05179207417380942

arr_0 f8 [14, 8]
0	0x3fb7aad3be169bff	0.092450364979058
1	0x3fcf6f957063f346	0.24559276569189076
2	0xbfe0ef3e8dbb525e	-0.5292046325872197
3	0x3fa39042cff30be4	0.038209998974273934
4	0x3fdae4c6721086e2	0.4202133287345601
5	0x3f29f97acabb7b80	0.00019816993641704958
6	0xbff1e180c86e9dc3	-1.117554457605238
7	0xbfcb2c5ff678df0c	-0.21229171309254757
8	0x3fe0307f971e45a5	0.5059202147987675
9	0xbfd57fdeccdd24a9	-0.33592958456263006
10	0x3fbad6cd65a9517e	0.10484012348144309
11	0xbfb32ffe51b6db71	-0.07495107169130023
12	0x3fe83d253ff8efde	0.7574640511952528
13	0x3fe7306458197ea1	0.7246572228140914
14	0x3fe6442795b1b49b	0.6958196567262748
15	0x3fd7c87575e57fdb	0.3716100360234102
16	0xbfd447ec0457029e	-0.3168897669202496
17	0x3ff27b7b376a52b7	1.1551468052540892
18	0x3fc74dd0c2072fd0	0.18206223939921395
19	0xbfb0573a434781c6	-0.06383098738252277
20	0x3f9e0737ed54a7e2	0.029324411259189172
21	0x3fe12b751e75a525	0.536554870120345
22	0x3f8dd490f7051fbf	0.014565594232990862
23	0xbfd3695325ac61a4	-0.3033035152343706
24	0x3fe05f62ce835c0f	0.5116437943896716
25	0xbfd269b2d8cc2bd7	-0.2877013318217769
26	0xbfcc61978cf7c037	-0.22172827132408354
27	0x3fe5a9103c18691d	0.6768876241433507
28	0x3fb1ca1c521c6412	0.06949021343861286
29	0xbfce26bdd66f56f5	-0.23555729837851627
30	0xbfbe2e8f78e239c6	-0.11789795590650617
31	0x3ff95de58e662402	1.5854240000210216
32	0x3fa6b913d5234e41	0.04438077904492533
33	0x3f91fd36672d4ee1	0.01756749157659854
34	0xbfbfec4c5b8a24a6	-0.12469937548498197
35	0xbfd356ce7c4c1f2d	-0.3021732534257236
36	0xbf9107cd8f1dcc3e	-0.016631328449374864
37	0xbfc84f35f319be54	-0.1899173199667411
38	0x3fc257d6efc308b0	0.1433056517326512
39	0xbfe524a5837b2567	-0.6607234542836239
40	0x3ff25e379dd9595b	1.148002258870824
41	0xbfdaa569fbfab8c8	-0.4163460694061425
42	0x3fdb56e35110b16f	0.42717821995281374
43	0xbfa9f96afda31493	-0.05073103281169113
44	0x3fcf617015c82fc2	0.24516106666157894
45	0x3fcd646f1e8347be	0.22962750425227613
46	0x3fccede0c280106b	0.2260094594677214
47	0xbfa07fe398f4e682	-0.03222571603914749
48	0x3facf2beaa41f443	0.056539495738413346
49	0xbf7a31c39425efc5	-0.006395114878952006
50	0x3f9a76ca3edb668b	0.025843772970665795
51	0xbf82c55c26762c77	-0.00916549675345933
52	0x3f997fe62d02334c	0.02490195893965401
53	0x3f899ee3813bb506	0.01251008737696192
54	0x3fb96d65e06bc72c	0.09932553032902253
55	0x3f4d514bf5f666fe	0.000894701090078359
56	0x3fdc4ea790ff3ecc	0.4423006931292377
57	0xbfd7ad8048305ab5	-0.3699646668405124
58	0xbfc8b15b8e9d4754	-0.19291252578346507
59	0x3f96672c95383f1d	0.021877953155182362
60	0x3fe0b1a388907e75	0.5216844241403594
61	0x3ff02198c9f4764d	1.0082023514618357
62	0x3fbcf905a72c53ba	0.11317477542281909
63	0x3ff905a00930a444	1.563873325251067
64	0xbfab20aa3f7e17cf	-0.05298358941131164
65	0x3fc6c0faddfcb1dd	0.17776428069318131
66	0xbfc7e1b2ab2599fa	-0.18657525402814185
67	0x3fac513e6c6aa4cd	0.05530734132237001
68	0xbfc05eb3b3a23fb2	-0.12789007445507888
69	0xbfcd59ea7023f666	-0.22930651164635946
70	0xbfdfa48c21a73e7d	-0.49441817556814965
71	0xbfb85fe33279c096	-0.09521312696756676
72	0xbff875c56bfbf76e	-1.5287527292379894
73	0xbff60b2bdcf64324	-1.3777273780180588
74	0xc0028ecb2f4febfe	-2.319723481775781
75	0xbfbc67896b2be742	-0.11095484606258046
76	0xc0013f4dfd8ea3ea	-2.1559104737429964
77	0xc0009391b4b701a8	-2.0720552557324545
78	0xc0228aaac0fef16b	-9.270833998795487
79	0xbff301071074201d	-1.1877508776397072
80	0x3fe68efdbfbbc020	0.7049549813073135
81	0xbfffc1b6f649c42c	-1.9847936268454403
82	0x3ff1e8ce102a969a	1.1193371421335656
83	0xbfd0b9ae54ae0006	-0.2613330676031186
84	0x3ff0969668881de8	1.0367645343084124
85	0xbff2dccf67145fb5	-1.1789087320848755
86	0x4014c1516e2acf9d	5.1887871945981745
87	0xbfee5feafbc7eb1f	-0.9492087285610501
88	0x3fa20cb62b83b9ce	0.03525323182281036
89	0x3fb0d751fdc89445	0.06578552671324285
90	0xbfd236097987ac8d	-0.2845481573883227
91	0xbfd352e312ec9af2	-0.3019340214545273
92	0xbf9ceadf73f0f995	-0.02823971886777484
93	0x3f90b39a7bb8f3a6	0.01631013279096618
94	0xbfc4a7b80dada3ce	-0.16136837642559815
95	0x3f7d8fa01563240e	0.007217049909919572
96	0xbfd728411cd605c4	-0.3618319303132831
97	0x3fded32cf8a88725	0.48163913996732993
98	0xbfc32a98b7517da3	-0.14973744345750814
99	0x3fc25e9786bb13d9	0.1435117156853767
100	0xbfd2693035351f34	-0.28767018505139963
101	0xbfd49f35d53c8b56	-0.3222174246204096
102	0xbfe90a3cd7d1580a	-0.7824997153463766
103	0xbfbe7995d9402c0a	-0.11904274515124783
104	0x3fe1533152be86d4	0.5414053550814182
105	0xbfd43a6acb94ecc1	-0.31606550103215275
106	0x3fcfb7b77889ea54	0.24779408822708382
107	0x3fa788971f9e5b17	0.04596397648781741
108	0x3ff264e9d23ce4e2	1.1496370518128107
109	0xbfcd0292b7140cce	-0.22664102496501076
110	0x3ff267d1cf583e33	1.1503465747263248
111	0xbfdc4b3856351fef	-0.4420910684461878

arr_3 f8 [3]
0	0x3fe21b6efa172a90	0.5658488163547464
1	0x3fe735af46e0682d	0.7253033050831214
2	0xbff48dc7d7b5cc74	-1.2846144128968975

arr_2 f8 [8, 3]
0	0x3febb247f851ab51	0.8655128335934511
1	0x3febe04b79381cd4	0.8711297385752013
2	0x3fed0749a7a1c33e	0.907139613538767
3	0x3febd63bf7be990d	0.8699016417274678
4	0x3feade81c5b4ab94	0.8396614896240515
5	0x3fe9548a99b9c7cf	0.7915699961142709
6	0x3fc05b49678d5b98	0.12778585010775312
7	0xbfc969222b1190ff	-0.19852091887435816
8	0x3fbde55998a7de21	0.11678085305163012
9	0x3fcb448fab615ba4	0.213029822046079
10	0x3f8552ea3bd0ff90	0.010412054014636657
11	0xbfca7847af03df85	-0.20679565473232855
12	0xbff1251fac2981a7	-1.0715634083827383
13	0x3fd7e550cef587d7	0.3733713170132637
14	0x3fe6cf40707a8d54	0.7127992817735653
15	0xbfe5189ddb61affe	-0.6592549595638955
16	0x3fd3ab697b9c5383	0.3073371607909438
17	0x3fd71d79c4d87cb5	0.36117405150612153
18	0xbfcb0833bbb070d0	-0.21118780769837153
19	0x3fb9a08bd0b60356	0.10010598988993755
20	0x3fbff87eea076fc1	0.1248854943618758
21	0xbfe6324f40f20d61	-0.6936413067309496
22	0x3fcc290844afbb4a	0.22000220636206286
23	0x3fdf6c32ea02e3ef	0.4909789357439526

arr_5 f8 [1]
0	0x3ff66177d16bc908	1.398795908022807

arr_4 f8 [11, 1]
0	0x3fb02c5e7ff30f03	0.06317701934591118
1	0xbfa4180949c9eff6	-0.039245882279800456
2	0x3fc5826af32021e6	0.16804253455508372
3	0xbfd8fef745146ec4	-0.3905618834121294
4	0x3fc9177df7622a59	0.19602942065496867
5	0x3fc252b78842ee64	0.14314932015792003
6	0x3fdd33fce149b436	0.4562980842663963
7	0x3fd1742915c587e1	0.27271487356313
8	0x3fecf1d7e207107e	0.9045218863107178
9	0xbfe3c17816433359	-0.6173668322386262
10	0xbfde135fedb7aed9	-0.4699325391254497
