agent_params_nolimit/69a8c022-d2ba-4aa2-b1e6-112b67476121.npz (npz, 2338 bytes, 6 tensors)

arr_1 f8 [8]
00000000: d501 19bf b2c9 c4bf 2e90 5b2c f994 c93f
00000010: b1c3 e66e a519 b0bf b05a 2c82 ed79 a63f
00000020: 2216 5e32 b9d4 bebf 9052 6cea bcd8 c1bf
00000030: 8381 bd13 3222 d6bf ad4c f2d7 f3b1 a6bf
-0.16240534144345867 0.19985880533124728 -0.06289133031420026 0.04389898504284895 -0.12043340186763676 -0.13942681738321427 -0.34583713462600246 -0.044326419935850715

arr_0 f8 [14, 8]
00000000: dd2e 2221 f20b d63f ccc3 64d3 1c1e ed3f
00000010: 967c e276 b236 ffbf 93d5 ef41 6675 c23f
00000020: ec70 3b3c f4df f83f 4d09 5e3e 8498 6f3f
00000030: d53b e4dd 2b7e 10c0 65b4 7daf a4fb e8bf
00000040: 6a59 ff5b 27f0 fd3f dbc3 10fe accb f3bf
00000050: 61c8 b965 75f9 d83f 45b1 fe6a ed82 d1bf
00000060: f16f e39c 3466 0640 a7a5 b452 206e 0540
00000070: 09ca f2d4 0f94 0440 0f1e 8843 e500 f63f
00000080: 161f 2d78 b9ab f2bf 0199 af7b b412 1140
00000090: c817 87d0 7c9c e53f 3b31 012e 72c4 cdbf
000000a0: 47c6 3b3f ae84 bc3f 6bb8 290b 76bf ff3f
000000b0: 181b 3701 bd22 ad3f 7a70 b13f 40de f1bf
000000c0: 5e99 690f b746 fe3f 446c 720b 4af2 f0bf
000000d0: 9e7e becc 1219 eabf e739 2fb9 e604 0440
000000e0: 8739 3c62 fb9e d03f abe5 b71f 5dbb ebbf
000000f0: ad31 aac0 faa8 dbbf 0319 673b 8b6d 1740
00000100: 2cf7 bc18 ff5f c53f 2144 d344 c367 b13f
00000110: 808a baa2 6d44 ddbf 02ed 1745 28cd f1bf
00000120: dc21 ebc7 35d7 adbf e8ba 3f04 e156 e6bf
00000130: b21a 51e0 3408 e13f d0e3 40b3 de7d 03c0
00000140: 3324 a92f b1f7 1040 c6ea f087 dd8b f8bf
00000150: b93e 73dc 4949 f93f 83c3 5698 7e93 c7bf
00000160: 07ff d00c 0e11 ed3f 934b b8fe 343b eb3f
00000170: f622 4562 c5cd ea3f 7719 8c3b 1ba9 bdbf
00000180: 6a58 ef86 111f cb3f 80e2 d1ca a8fa 94bf
00000190: faeb 7c32 713a b93f bd00 0ba6 2574 9fbf
000001a0: fe42 be32 8b56 b83f d265 bd75 f63f a93f
000001b0: 5e2a 7e15 dbab d73f a659 9bcd fb54 7a3f
000001c0: 741f 75cb fe2d fa3f c545 29f1 68ce f5bf
000001d0: a803 43cc 79b1 e6bf 1b45 a7e4 cc7a b53f
000001e0: 0646 0adf 90de fe3f 5576 332b 3ece 0d40
000001f0: f299 47d7 a8f1 da3f b6a0 940f 101c 1740
00000200: 8e88 547e 07a4 c8bf faca ce6c 7c1a e53f
00000210: 3738 9164 caf1 e5bf c4cc 53c1 fd89 ca3f
00000220: c0ac 1ab9 7205 debf ef40 0066 4bfe eabf
00000230: 6a06 4b74 9928 fdbf cd5a 93d1 ab4c d6bf
00000240: d547 5be2 df90 16c0 ce89 7988 dc55 14c0
00000250: 14e9 bf3f bb1f 21c0 df28 9591 f504 dabf
00000260: c369 d7cf 19d4 1fc0 eb31 a948 0d97 1ec0
00000270: 8c2d 424e 1f1d 41c0 97a6 05df 9387 11c0
00000280: ca7c 8339 24d9 0440 1bb0 c4a5 1f4d 1dc0
00000290: e463 41db 4f8b 1040 bbbc 4aac 02c7 eebf
000002a0: 644b ee90 39a6 0e40 3910 4b72 2566 11c0
000002b0: a01c 1a08 6229 3340 5d57 14ce 5703 0cc0
000002c0: 3988 77b3 a90f c13f 185a 8abe bc7d cf3f
000002d0: e1da 040e 9ac2 f0bf 57f9 190c 8ac9 f1bf
000002e0: 8670 8703 95e4 b9bf 882b a167 8237 b03f
000002f0: 4883 68f1 59f7 e2bf c971 3239 ba7c 9e3f
00000300: 787c bcd3 6953 f5bf 90eb f584 ef80 fc3f
00000310: 8555 b31f 8c97 e1bf 8990 d47d 700e e13f
00000320: 1688 8e74 d1f1 f0bf 8186 8c4c 4cfc f2bf
00000330: dc34 bf45 b816 07c0 8ceb 1aa6 3bee dbbf
00000340: 32bb a8b6 6804 0040 fe49 2933 429f f2bf
00000350: 8ec7 5d54 b260 ed3f 76e1 dccb 8b1f c63f
00000360: 5ddf e185 dffd 1040 e281 55bb abad eabf
00000370: 1067 7947 8e00 1140 d481 962c 3911 fabf
0.3444791148728948 0.9099258545667168 -1.9508537906583903 0.14420774669239886 1.554676280290603 0.003856905258488619 -4.123214213423997 -0.7807181766089683
1.871131286015578 -1.2372255253251214 0.39022574361945855 -0.27361617516250575 2.799905038538775 2.678772588861381 2.5722958218186744 1.3752186429936761
-1.1669249243149742 4.268266613571769 0.6753524849707384 -0.2325575565940968 0.11139954608713608 1.9842434345296407 0.05690565719446833 -1.1167604911816214
1.8922644235659258 -1.0591526457926799 -0.8155607222469887 2.50239319491742 0.25970348923956305 -0.8666215533732403 -0.43218869032787205 5.856976440589508
0.16699207981030761 0.0679895442037979 -0.4573015298030114 -1.1125872324908532 -0.058282547620880115 -0.6981053431498738 0.5322517758548513 -2.4364599231889557
4.241886849115917 -1.534146815318921 1.580392705090999 -0.18418867529319635 0.9083318949051041 0.8509774184225186 0.8376185340249254 -0.11586160854139914
0.21188563431377655 -0.02048743951715659 0.0985480068456325 -0.03071650339075015 0.09507055271957296 0.049316121933496895 0.3698642454043347 0.006428702932416297
1.6362293193396598 -1.3628930492744626 -0.7091645230758461 0.08390503485067706 1.9293373787407986 3.725704514987948 0.4209997274723768 5.777405017324943
-0.19250577610461445 0.6594831586029095 -0.6857654537395835 0.20733615817844087 -0.46908252789098626 -0.843541812153516 -1.822411970395843 -0.3484296366345177
-5.641479050465894 -5.08384907953082 -8.561975471664972 -0.40655268876129286 -7.957129714510702 -7.647511611296504 -34.227517874062954 -4.3824000212859096
2.606026124310664 -7.325316038255575 4.136046815744496 -0.961793266780567 3.831164486190959 -4.349752221900467 19.161652094244914 -3.5016323184926663
0.13329049361260717 0.24602469733936583 -1.0475101993194402 -1.1117039177621189 -0.10114413581999501 0.0633470061303979 -0.5926942553524919 0.029772672406225973
-1.332864596457311 1.78147842347855 -0.5497494334364751 0.5330126245139734 -1.059037642764911 -1.1865962019150234 -2.8860936593033397 -0.43641558858114915
2.0021528501742063 -1.1638814924705225 0.9180537841586884 0.17283770994414355 4.247922984992184 -0.8337000521533435 4.250542752060724 -1.6292049161639754

arr_3 f8 [3]
00000000: 20d5 9638 a5c1 e23f ca9b 5db8 550b e83f
00000010: aece 1a34 ef4d f5bf
0.5861383538491829 0.7513836480037466 -1.3315269503918148

arr_2 f8 [8, 3]
00000000: 8af1 577f ff54 e33f b26a aec1 2c75 e33f
00000010: d302 8bac 7543 e43f 9f75 d8bc 236e e33f
00000020: f354 4b30 e8c0 e23f 6ae6 706e 69ad e13f
00000030: acfd c095 0f97 b63f f1aa a482 8be9 c1bf
00000040: 343e e0e4 b79e b43f a40c f30e d5ec c23f
00000050: f1a3 0f87 ed3f 793f 2358 ed82 27a7 c2bf
00000060: 6c27 0b41 aa03 e8bf 9d6a ce03 78a3 d03f
00000070: 46fa 7973 56d4 df3f edc0 22d9 7593 ddbf
00000080: 4615 0579 d05d cb3f 4b3b d123 b917 d03f
00000090: 71c3 e517 cc0b c3bf 53ae f7c8 88a2 b13f
000000a0: ccc1 9f54 2412 b63f 614c 33d6 6d1d dfbf
000000b0: 1b20 fe66 998c c33f 7dd2 d701 eae6 d53f
0.604125736921149 0.6080535681570238 0.6332348222714138 0.607194775427775 0.5860482161757815 0.5524184376765338 0.08824250608539924 -0.13993972662986878
0.08054684961120345 0.14785254697753658 0.006164481966131939 -0.14572614567686157 -0.7504473944074852 0.2599773442431486 0.49733506466865085 -0.4621252651659365
0.21380048665211343 0.2514479493883541 -0.14879752318259024 0.0688863268512077 0.08621432367340914 -0.48617120664602537 0.152728247918504 0.342218877601489

arr_5 f8 [1]
00000000: 5e7c b5c1 244a e13f
0.5403007300736922

arr_4 f8 [11, 1]
00000000: d79e 54dc 8721 d43f 5aaa b0e1 23f1 c9bf
00000010: 5b1b e4bc dc02 eb3f 5bf2 d5f0 cba0 ffbf
00000020: 49dd 6111 a188 ef3f 1992 0e30 13fd e63f
00000030: f54a cc4e de65 0240 d0cc 3ce1 7bf6 f53f
00000040: 9d4f 9bd6 b540 1240 8ba2 15ac 06fa 08c0
00000050: 0d7d fee3 4005 03c0
0.3145465518632426 -0.20267151374840148 0.8440993966367886 -1.9767569930692364 0.9854283656594954 0.7183929384814888 2.299740424737474 1.3726767347659923
4.563193658093863 -3.122083038721319 -2.377565175250885
