agent_params_nolimit/a18efbac-b96f-4437-b9da-355e96b22757.npz (npz, 2338 bytes, 6 tensors)

arr_1 f8 [8]
0	0x3fb518264e77889a	0.08239974418350685
1	0xbfd5c8ed8d6c8f05	-0.34038866816466423
2	0xbfb831c4c9d84769	-0.0945094101701024
3	0x3fb35b0461a5e206	0.07560756095870866
4	0xbfe00d416fd91b14	-0.5016181168110472
5	0xbfe1e56ce38b1e04	-0.559256023808246
6	0x3f9287a3ae6b68af	0.018095548172688932
7	0xbfa605f641aec22b	-0.04301423599043049

arr_0 f8 [14, 8]
0	0xbfb0e1804796bda1	-0.06594087360166735
1	0x3fb729695a035988	0.09047563979706841
2	0xbfcb3e50d594a591	-0.2128392260431551
3	0x3fb83f7f58ef8ab5	0.09471889420778264
4	0x3fc666de7c31c67b	0.17501431526357067
5	0x3fe2295baf33c450	0.567548601333451
6	0xbfc22964eea9fce4	-0.14188825276867256
7	0xbfd7df023140e9a1	-0.37298636255186507
8	0xbfcb2a5a5a5b09a3	-0.21223000919242194
9	0x3febfba24788a946	0.8744670292992758
10	0xbfcc905499051aff	-0.223154616085786
11	0x3ff6bde2889342e9	1.4213586173029233
12	0x3fee47df0cb80cad	0.9462733505646576
13	0x3ffaaab4332214b1	1.6666757581126996
14	0xbfd54830217c3746	-0.3325310065273367
15	0xbfe38f933a4d66cf	-0.6112762583463452
16	0xbfe697a5d2e6da3d	-0.7060116881537578
17	0xbfec179ff3d8b6b9	-0.8778838884952257
18	0xbff357d8e29ac797	-1.2089470721952915
19	0xbfcb56908f8edf14	-0.21357924470589096
20	0x3fc91371052a4f2a	0.19590580703936072
21	0xbf860e55bfc392e4	-0.010769529261275897
22	0xbfd2c67267687844	-0.29336223696180164
23	0xbfe54cc4726784d4	-0.6656210169277537
24	0xbfedd72081704b9f	-0.9325106170748433
25	0x3fe3ca55576401b9	0.61844889706122
26	0x3fc543b15e18cbd1	0.16612832159589044
27	0x3ff17957810c1f44	1.092124466029376
28	0x3fc4f99d0a864db5	0.16386759771249407
29	0xbf9f29f9fa4e8040	-0.030433565046792177
30	0xbfe3309a093731a7	-0.5996828250877585
31	0xbfdb5a155e1da770	-0.42737325850486396
32	0xbfaabe5fbef3d7c8	-0.05223368841136239
33	0x3fafd2776673fdbd	0.06215260625503614
34	0x3fd27dceb924e9d1	0.2889286811875112
35	0xbfe91f52484f334f	-0.7850734150211823
36	0x3f8d7975bdbcee82	0.014391822674603153
37	0xbf91decece6e665a	-0.01745150694805484
38	0x3f9d5fb04183ee2c	0.028685335158099942
39	0xbfc1defd0913f4de	-0.13961756652125862
40	0x3fb886ecdd8220fd	0.09580879600446575
41	0x3ffe644d57fe0414	1.8994878232190375
42	0x3fd77ccd18d3b837	0.366992258305689
43	0x3fd7b63cade55e8f	0.3704978655054924
44	0x3fe6094d2383ab42	0.6886354154242798
45	0xbfa3e0d183cb16e3	-0.038824603403140555
46	0x3fcbc83ef9faea29	0.21704852300702385
47	0x3fccd5ae07eb60f7	0.22527099024478733
48	0xbf967f333dc9230f	-0.021969605108355824
49	0x3fa83b72f9e3be1c	0.04732856083307643
50	0xbf9cae5e625a57fc	-0.028008913758263518
51	0xbf99c34470bb471b	-0.02515894830759811
52	0xbf712fea18d136bc	-0.004196085396939327
53	0xbf97bebc23190b6a	-0.023188533441735805
54	0xbf9270166c37870b	-0.018005705218349138
55	0xbfa672fad5e0037f	-0.04384597645549259
56	0xbfd50487fc88c160	-0.32840156232398066
57	0x3fd421709f45c6bd	0.3145410113712435
58	0xbfd093b9fb05da62	-0.2590165091891433
59	0x400ba61296790543	3.456090140884642
60	0x3fe5563ea48a4394	0.6667779172586159
61	0x3fccaacad703b806	0.22396216868168056
62	0xbfce8616eb38b2d5	-0.23846708760665672
63	0xbfdbcd22b9352e6d	-0.4343954857510884
64	0x3fa407660dc48533	0.03911894720136857
65	0xbfc00d843dfdd01d	-0.12541249300886728
66	0xbf993472becf2ded	-0.024614136596751313
67	0xbfb163024dee7c03	-0.06791700747133693
68	0xbfd37ee897ec9f1c	-0.3046208842883844
69	0xbfcf8930fcdd19e9	-0.2463742479978486
70	0xbf94f3b1c1b4a6fd	-0.02046087021623232
71	0x3fb3fc9f1ef4ed10	0.07807344918994752
72	0x3fdb1f7b3c5dc200	0.4237964715494229
73	0x3fdbe15ca54aef46	0.43562999860636287
74	0x3fe808b99a769f26	0.7510650650847068
75	0xc00745ee361f383f	-2.909145758464575
76	0xbfc63d0c939e9631	-0.17373807151777634
77	0xbfab396ae074f8f9	-0.05317243566467939
78	0x3feef8a4a51cd69c	0.9678519463402213
79	0x3ffb40b6a051ca1a	1.703299165962227
80	0x3ffa7245b203bddd	1.6528984979339534
81	0x40044b2c761ed72b	2.536705897155931
82	0x3ff4e2aedf58b28a	1.3053425526115086
83	0xc0000191df8d7470	-2.0007665123981084
84	0x3fd4317a8231dcb0	0.3155199309762322
85	0xbfb2c44ba3018b39	-0.07330773095740718
86	0x3fee7973e86ffa12	0.9523257770341067
87	0x3ff41be64f1f3a19	1.2568114367201189
88	0xbfcbf528d10f3d75	-0.2184191723631376
89	0xbfa32be9f58dd5fa	-0.037444411492213406
90	0xbfc690e1d9750a2c	-0.1762964546015423
91	0x3f9e8b6fcff86ae8	0.029828784054283825
92	0xbfa6ce42bbd1c197	-0.04454239409176635
93	0xbfb0af7332578373	-0.0651771543412119
94	0xbfb797689543b597	-0.09215406078484133
95	0xbfa41c7408b4bb9d	-0.03927958112978234
96	0x3fca711e99b8050a	0.20657713418771834
97	0xbfe5049bd9df031d	-0.6568125968261459
98	0xbfc3a137922b5d4d	-0.15335745465447773
99	0x3fc9afb17fd0faf4	0.2006742357352419
100	0xbfee6935dec0dc40	-0.9503430700923516
101	0xbff0660f52532103	-1.024916955548236
102	0x3fb60f45d7af4a17	0.08617054477444018
103	0xbf95a07a6c623dd0	-0.02111998831293055
104	0xbfa24f9a9900e9cc	-0.035763579537576
105	0x3ff2fb1574d299de	1.1862997592339677
106	0xbfdacdf2b9a6db76	-0.4188200772290921
107	0x3fb092570ccc9d0a	0.06473297178728302
108	0x3fd279b5f7953e12	0.2886786382486842
109	0x3ff3172ae1165170	1.1931561272113775
110	0xbfdc9e5686c83961	-0.4471641842109389
111	0xbfd2f06ae2cabe15	-0.2959239210858596

arr_3 f8 [3]
0	0x3fed5cf2aefd2b68	0.9175961892845921
1	0x3fe54dc37db4e0ac	0.6657426314550512
2	0xbffaf631eca826bd	-1.6851062054069381

arr_2 f8 [8, 3]
0	0x3ff68499f44512c9	1.407373384646393
1	0x3fc87863f18f9842	0.1911740235802331
2	0x3fcc0c5dd7c6319b	0.21912739787911736
3	0x4013c9dd989fc9d0	4.9471343848731095
4	0x4013e40f81214727	4.972715394645809
5	0x4014180967eae5fc	5.023473380767879
6	0x40081b300ca48fc2	3.0132752406807137
7	0x4010cafa0acae5de	4.198219460138231
8	0x4010d13188443e6e	4.204290513196254
9	0xbfe9d50d2b139e0a	-0.807257255682033
10	0x3fce3b4e79e1acaa	0.2361848921894752
11	0x3fe001e65235a1d6	0.5002318959860144
12	0xbfe8f7e7856a9faf	-0.7802617650786398
13	0x3fe5ff3a799e387a	0.6874058127739453
14	0x3fe5a997d2a0777a	0.676952277546419
15	0xbfdd53e7f852ed01	-0.45824622393020326
16	0xbfd692f395279e69	-0.3527192074384176
17	0x3fe6c1fa1b8e611c	0.7111788309294158
18	0x400b2112d56f41dc	3.3911492037370703
19	0x400a709cdfa303a3	3.3049867126105297
20	0x400a29e14a77247b	3.27044923950285
21	0x3fd360aa4d765bc8	0.3027749783008713
22	0x3fd3cc61012fc4cb	0.309349299582277
23	0x3fccd01abc149e17	0.22510084327335342

arr_5 f8 [1]
0	0x406f423f70a39429	250.07024414013839

arr_4 f8 [11, 1]
0	0x4001302b831a0f72	2.1485204927757247
1	0x401e1fbd8d4b5f5e	7.53099652073419
2	0x4007697c6b321264	2.926506841149875
3	0x3ff2f78b63106900	1.1854356641475192
4	0x400f8ab47c7682da	3.9427270625750284
5	0xbfd2831b7bac4a40	-0.28925215794984993
6	0x400369e0faa7d7a8	2.426698644873756
7	0x3fe9b33cea31ca2d	0.8031296323882252
8	0x3f954cee926ddc49	0.020801284491849512
9	0x3f740e7c7cea949d	0.004896627694198544
10	0x3fb07189551cf917	0.06423242881735224
