agent_params_nolimit/adc371e2-0239-45a1-b109-51bc1cfd4227.npz (npz, 2338 bytes, 6 tensors)

arr_1 f8 [8]
000000 54 6e 7a ab fc 90 c8 bf 2e eb 10 78 7d 64 ce 3f
       -0.19192465184174756 0.2374417148838232
000010 c3 30 61 0a 33 f0 b2 bf 2f 18 d0 1d 87 ed aa 3f
       -0.0739776516285842 0.05259344328810333
000020 2a fd c8 92 e5 32 c2 bf 2d 33 fe 49 8e 14 c5 bf
       -0.1421782461857018 -0.16468981373727712
000030 07 d7 98 45 85 32 da bf 19 0f b3 bf 54 9c aa bf
       -0.40933353230080666 -0.05197396125870863

arr_0 f8 [14, 8]
000000 2f 1f fd 89 e8 fd b7 3f df 34 57 d6 1f 99 cf 3f
       0.09371808403841152 0.2468604847512443
000010 f8 81 3e f4 db e4 e0 bf 45 12 c0 67 6c 36 a4 3f
       -0.5279369135278662 0.039477718033627464
000020 ae 27 0a a5 8b f9 da 3f 94 3b f8 52 62 04 58 3f
       0.4214810477939136 0.00146588899577058
000030 90 35 b0 7b 4f dc f1 bf 73 9d 85 90 d5 02 cb bf
       -1.1162867385458846 -0.21102399403319402
000040 0b 16 9b 30 e2 3a e0 3f dd 83 e3 99 19 6b d5 bf
       0.507187933858121 -0.33466186550327653
000050 ae d4 8f 31 e2 29 bb 3f 41 58 d0 85 e9 dc b2 bf
       0.10610784254079661 -0.07368335263194671
000060 44 c0 75 d9 87 47 e8 3f 07 4f 96 f1 c6 3a e7 3f
       0.7587317702546064 0.7259249418734449
000070 01 85 2e 2f 8a 4e e6 3f a7 20 df a8 3a dd d7 3f
       0.6970873757856283 0.3728777550827637
000080 d2 61 5d d1 26 33 d4 bf ea ba 28 84 ac 80 f2 3f
       -0.3156220478608961 1.1564145243134427
000090 69 71 fa 27 5b 77 c7 3f 96 fe 60 77 25 04 b0 bf
       0.1833299584585675 -0.06256326832316925
0000a0 a5 b4 ee 1c 8b 53 9f 3f 8b 75 f2 b7 d7 35 e1 3f
       0.030592130318542705 0.5378225891796985
0000b0 a2 9c 1c ab 9b 36 90 3f d8 c0 b2 f2 8d 54 d3 bf
       0.015833313292344393 -0.3020357961750171
0000c0 75 2c 00 68 c5 69 e0 3f 0b 8b d2 a5 ed 54 d2 bf
       0.5129115134490251 -0.28643361276242335
0000d0 9e 7e 04 27 0d 38 cc bf 83 39 95 d5 72 b3 e5 3f
       -0.22046055226473 0.6781553432027042
0000e0 42 e7 02 1e 31 1d b2 3f 5c 15 7c 70 33 fd cd bf
       0.07075793249796639 -0.23428957931916272
0000f0 96 b6 fb ac 7a db bd bf 35 8c 24 db 16 63 f9 3f
       -0.11663023684715265 1.586691719080375
000100 a2 54 f0 6c 3d 5f a7 3f a4 5b c7 96 89 49 93 3f
       0.04564849810427886 0.018835210635952074
000110 76 a1 a3 8f 37 99 bf bf 61 7e 52 49 09 42 d3 bf
       -0.12343165642562845 -0.3009055343663701
000120 f7 7e 07 bf f4 76 8f bf bb 7c 26 8d ab 25 c8 bf
       -0.015363609390021333 -0.18864960090738755
000130 49 4a b6 55 61 81 c2 3f 01 55 fe e9 42 1a e5 bf
       0.14457337079200475 -0.6594557352242704
000140 8e c1 97 ea 68 63 f2 3f fc 17 01 c9 a4 90 da bf
       1.1492699779301776 -0.41507835034678897
000150 3b 52 0a 84 a8 6b db 3f 32 0e d6 65 41 53 a9 bf
       0.42844593901216727 -0.049463313752337604
000160 5b 71 bb 7b fa 8a cf 3f 57 89 76 84 f9 8d cd 3f
       0.2464287857209325 0.23089522331162968
000170 04 52 73 28 6b 17 cd 3f 41 c0 4f 02 74 b3 9f bf
       0.22727717852707496 -0.03095799697979396
000180 a4 fa 0e 42 e8 98 ad 3f bc bc bd d5 76 00 75 bf
       0.057807214797766876 -0.005127395819598476
000190 4e 73 75 6e 1d c3 9b 3f f3 12 42 c7 b5 2c 80 bf
       0.027111492030019328 -0.0078977776941058
0001a0 0f 40 9c 5c 39 cc 9a 3f 8a ce 6f e0 89 37 8c 3f
       0.026169677999007542 0.013777806436315449
0001b0 5c 4a 52 ac 7a c0 b9 3f d2 ff 4d 7a ec b6 61 3f
       0.10059324938837605 0.0021624201494318896
0001c0 98 df f8 c3 6c 63 dc 3f e9 b9 36 15 bb 98 d7 bf
       0.4435684121885912 -0.36869694778115886
0001d0 bb 05 aa 28 d1 87 c8 bf e0 4b d2 c4 7f b3 97 3f
       -0.19164480672411152 0.023145672214535895
0001e0 db 4e 0d 22 06 bc e0 3f 80 de b2 16 ca 26 f0 3f
       0.522952143199713 1.0094700705211892
0001f0 ea d6 12 73 1a 4c bd 3f 77 0c ef 55 d1 0a f9 3f
       0.11444249448217261 1.5651410443104206
000200 6e 11 b1 a7 80 7a aa bf 76 f3 ef 43 85 ea c6 3f
       -0.05171587035195811 0.17903199975253486
000210 61 58 32 45 28 b8 c7 bf 2e ab 37 04 68 f7 ac 3f
       -0.1853075349687883 0.05657506038172354
000220 19 fe ae 4d 29 35 c0 bf cd b4 30 0a 60 30 cd bf
       -0.12662235539572533 -0.2280387925870059
000230 b1 9d ad ee c6 8f df bf 66 3d 93 66 ce 0c b8 bf
       -0.49315045650879613 -0.09394540790821324
000240 3b 8f 3d 1f 94 70 f8 bf f1 da 37 90 fa 05 f6 bf
       -1.527485010178636 -1.3764596589587053
000250 e5 b7 f0 88 32 8c 02 c0 12 64 45 9f 74 14 bc bf
       -2.3184557627164275 -0.10968712700322694
000260 d1 6f 2f 57 b5 3c 01 c0 8f cd 57 0e f9 90 00 c0
       -2.154642754683643 -2.0707875366731012
000270 65 24 67 97 04 8a 22 c0 ea b7 b5 c3 d5 fb f2 bf
       -9.269566279736134 -1.1864831585803537
000280 86 90 38 59 60 99 e6 3f f9 5b 8b a9 85 bc ff bf
       0.706222700366667 -1.9835259077860867
000290 cd fe e8 5c ff ed f1 3f 3a 5f b4 21 e9 a4 d0 bf
       1.1206048611929191 -0.26006534854376506
0002a0 1b 86 46 b5 c7 9b f0 3f 82 f7 55 1a 9e d7 f2 bf
       1.038032253367766 -1.177641013025522
0002b0 aa 69 5a c1 9d c2 14 40 b9 1a 4b 62 88 55 ee bf
       5.190054913657528 -0.9479410095016966
0002c0 2f c0 50 c3 df b2 a2 3f 75 17 af c9 66 2a b1 3f
       0.03652095088216389 0.06705324577259637
0002d0 c1 0b 8e 46 44 21 d2 bf 26 fa f2 df 1d 3e d3 bf
       -0.28328043832896915 -0.3006663023951738
0002e0 d2 ec 56 44 8c 9e 9b bf 69 00 53 ab ed ff 91 3f
       -0.026971999808421306 0.017577851850319712
0002f0 35 62 ba a7 2d 7e c4 bf 8b ab e5 69 76 60 81 3f
       -0.1601006573662446 0.008484768969273101
000300 f8 64 dc e9 7b 13 d7 bf f1 27 a2 2b f2 e7 de 3f
       -0.36056421125392957 0.48290685902668345
000310 0a 3c 5e 51 0e 01 c3 bf 72 55 ae ec 21 88 c2 3f
       -0.1484697243981546 0.14477943474473026
000320 68 7e 3b 02 6b 54 d2 bf 8a ea 42 a2 70 8a d4 bf
       -0.2864024659920461 -0.32094970556105606
000330 a4 87 54 3e da ff e8 bf da a8 59 0d 81 26 be bf
       -0.7812319962870231 -0.1177750260918943
000340 3a 57 3b ec 93 5d e1 3f f5 4b 9b 98 a5 25 d4 bf
       0.5426730741407717 -0.31479778197279923
000350 ed 2b 7d de 41 e1 cf 3f 78 61 6b b7 c0 2e a8 3f
       0.24906180728643737 0.04723169554717094
000360 15 4d fb 1e 1b 6a f2 3f 35 cb 20 51 08 d9 cc bf
       1.1509047708721643 -0.2253733059056572
000370 66 a6 16 1c 03 6d f2 3f 23 7f 3b 23 73 36 dc bf
       1.1516142937856784 -0.44082334938683426

arr_3 f8 [3]
000000 1c ea 37 68 38 24 e2 3f b9 27 01 b5 78 3e e7 3f
       0.5669214282527864 0.7263759169811613
000010 ae 6c a5 20 63 89 f4 bf
       -1.2835418009988575

arr_2 f8 [8, 3]
000000 0f e6 8d 26 42 a1 eb 3f 92 57 74 a7 45 cf eb 3f
       0.8634348633779058 0.8690517683596559
000010 fc fd dd d5 43 f6 ec 3f cb d3 fa 25 36 c5 eb 3f
       0.9050616433232217 0.8678236715119224
000020 52 e6 f0 f3 7b cd ea 3f 8d 02 f6 c7 84 43 e9 3f
       0.8375835194085062 0.7894920258987256
000030 91 46 7e 20 32 17 c0 3f 06 a6 20 72 39 ad c9 bf
       0.1257078798922078 -0.20059888908990348
000040 14 b4 89 0a 2b 5d bd 3f 9d 46 52 64 78 00 cb 3f
       0.11470288283608482 0.2109518518305337
000050 21 af df ca 75 11 81 3f 8c f4 12 f6 5e bc ca bf
       0.008334083799091343 -0.20887362494787387
000060 48 64 0b 95 a2 2d f1 bf 54 fd 6d 2b 45 c3 d7 3f
       -1.0736413785982837 0.3712933467977184
000070 12 c8 b6 9e 3a be e6 3f 40 75 25 ad a3 29 e5 bf
       0.71072131155802 -0.6613329297794408
000080 00 c9 14 d8 5d 89 d3 3f 32 f2 50 21 6e fb d6 3f
       0.3052591905753985 0.35909608129057624
000090 d7 85 bf 02 4b 4c cb bf 49 d9 97 42 5d 18 b9 3f
       -0.21326577791391685 0.09802801967439224
0000a0 b4 45 e9 5b 50 70 bf 3f a3 d2 b5 12 55 43 e6 bf
       0.1228075241463305 -0.6957192769464949
0000b0 43 a6 a0 fd f0 e4 cb 3f 6c 59 7b 46 27 4a df 3f
       0.21792423614651754 0.48890096552840734

arr_5 f8 [1]
000000 e1 e3 d7 a2 38 5e f6 3f
       1.3980032311503623

arr_4 f8 [11, 1]
000000 1c b8 28 c6 de 23 b0 3f c4 9d 5e bd 08 29 a4 bf
       0.06304733598582896 -0.039375565639882676
000010 72 f6 3a 16 2b 7e c5 3f 7d 04 87 33 17 01 d9 bf
       0.1679128511950015 -0.39069156677221156
000020 e5 fe 7c 1a 3e 13 c9 3f f0 c2 5d ab 77 4e c2 3f
       0.19589973729488644 0.1430196367978378
000030 7d 1e d7 f2 dc 31 dd 3f 28 f2 52 27 09 72 d1 3f
       0.4561684009063141 0.27258519020304783
000040 a1 c5 cd ea c7 f0 ec 3f 36 7e 7c 0d 88 c2 e3 bf
       0.9043922029506356 -0.6174965155987084
000050 92 44 2a dc 7f 15 de bf
       -0.47006222248553187
