agent_params_nolimit/b5dbc384-392a-4c54-9dc9-155794d90103.npz (npz, 2338 bytes, 6 tensors)

arr_1 f8 [8]
000000 75 15 6d 85 17 8f c8 bf 0d 44 1e 9e 62 66 ce 3f
       -0.1918668176169082 0.23749954910866258
000010 06 7f 46 be 68 ec b2 bf a9 7b 05 b6 1b f5 aa 3f
       -0.07391981740374484 0.05265127751294269
000020 4b a4 bb 6c 00 31 c2 bf 4e da f0 23 a9 12 c5 bf
       -0.14212041196086242 -0.16463197951243774
000030 98 2a 92 b2 92 31 da bf 9f ab 7d 27 c0 94 aa bf
       -0.4092756980759673 -0.05191612703386927

arr_0 f8 [14, 8]
000000 7c 04 90 2c 81 ed b7 3f 85 a7 a0 27 ec 90 cf 3f
       0.09346778238252001 0.2466101830953528
000010 4f 25 ec df e8 e6 e0 bf df dc e5 ac 9d 15 a4 3f
       -0.5281872151837578 0.03922741637773596
000020 02 e1 ae cd 71 f5 da 3f d7 8e b1 f7 8a ea 53 3f
       0.42123074613802214 0.0012155873398790784
000030 3b 07 87 f1 55 dd f1 bf cd 2a 3c 3f 09 0b cb bf
       -1.116537040201776 -0.21127429568908554
000040 b4 72 ed 44 d5 38 e0 3f 89 ca 3e 71 33 6f d5 bf
       0.5069376322022294 -0.334912167159168
000050 fb b9 22 d4 7a 19 bb 3f f4 72 3d e3 50 ed b2 bf
       0.10585754088490511 -0.07393365428783821
000060 ed 1c c8 ed 7a 45 e8 3f b0 ab e8 05 ba 38 e7 3f
       0.7584814685987148 0.7256746402175533
000070 aa e1 80 43 7d 4c e6 3f fb d9 83 d1 20 d9 d7 3f
       0.6968370741297367 0.37262745342687226
000080 7e a8 b8 a8 40 37 d4 bf 3f e9 51 0e a6 7f f2 3f
       -0.31587234951678755 1.1561642226575513
000090 0f e4 43 79 27 6f c7 3f 49 19 ce d4 8c 14 b0 bf
       0.183079656802676 -0.06281356997906075
0000a0 d9 49 3a a7 ed 11 9f 3f 34 d2 44 cc ca 33 e1 3f
       0.030341828662651203 0.5375722875238069
0000b0 ac 63 d0 6a fc e9 8f 3f 84 07 0e ca a7 58 d3 bf
       0.015583011636452891 -0.30228609783090854
0000c0 1e 89 52 7c b8 67 e0 3f b7 d1 2d 7d 07 59 d2 bf
       0.5126612117931335 -0.2866839144183148
0000d0 f8 0b bb d5 40 40 cc bf 2c 96 e7 e9 65 b1 e5 3f
       -0.2207108539206215 0.6779050415468126
0000e0 8f cc 95 c0 c9 0c b2 3f b6 a2 32 1f 67 05 ce bf
       0.07050763084207488 -0.23453988097505424
0000f0 49 d1 68 0a e2 eb bd bf 8a ba 4d 65 10 62 f9 3f
       -0.11688053850304415 1.5864414174244836
000100 3c 1f 16 b2 6e 3e a7 3f d8 f0 12 21 ec 07 93 3f
       0.04539819644838736 0.01858490898006057
000110 29 bc 10 ed 9e a9 bf bf 0d c5 ad 20 23 46 d3 bf
       -0.12368195808151995 -0.30115583602226154
000120 8e 54 70 aa 2f fa 8f bf 15 0a dd 3b df 2d c8 bf
       -0.015613911045912834 -0.18889990256327907
000130 ef bc ff a6 2d 79 c2 3f 58 f8 ab d5 4f 1c e5 bf
       0.14432306913611323 -0.6597060368801619
000140 e3 ef c0 74 62 62 f2 3f a8 5e 5c a0 be 94 da bf
       1.1490196762742861 -0.41532865200268043
000150 8f 0b af ac 8e 67 db 3f 98 43 b0 20 10 74 a9 bf
       0.4281956373562758 -0.049713615408229106
000160 01 e4 04 cd c6 82 cf 3f fd fb bf d5 c5 85 cd 3f
       0.24617848406504098 0.23064492165573816
000170 aa c4 bc 79 37 0f cd 3f 0d 2b 04 78 11 f5 9f bf
       0.22702687687118345 -0.03120829863568546
000180 3e c5 34 87 19 78 ad 3f eb 67 8f ac ec 06 76 bf
       0.057556913141875374 -0.005377697475489977
000190 82 08 c1 f8 7f 81 9b 3f 8a e8 aa b2 f0 af 80 bf
       0.026861190374127826 -0.008148079349997301
0001a0 43 d5 e7 e6 9b 8a 9a 3f f3 f8 06 f5 4e b4 8b 3f
       0.02591937634311604 0.013527504780423949
0001b0 a9 2f e5 4e 13 b0 b9 3f e6 52 55 99 01 54 5f 3f
       0.10034294773248455 0.0019121184935403878
0001c0 ec 98 9d ec 52 5f dc 3f 95 00 92 ec d4 9c d7 bf
       0.44331811053269976 -0.3689472494370503
0001d0 15 93 60 d7 04 90 c8 bf 14 e1 1d 4f e2 71 97 3f
       -0.19189510838000304 0.022895370558644393
0001e0 84 ab 5f 36 f9 b9 e0 3f d5 0c dc a0 c3 25 f0 3f
       0.5227018415438214 1.0092197688652977
0001f0 37 bc a5 15 b3 3b bd 3f cc 3a 18 e0 ca 09 f9 3f
       0.11419219282628111 1.564890742654529
000200 d4 46 8b 62 4f 9b aa bf 1c 66 39 95 51 e2 c6 3f
       -0.051966172007849615 0.17878169809664335
000210 bb e5 e8 f3 5b c0 c7 bf c8 75 5d 49 99 d6 ac 3f
       -0.1855578366246798 0.056324758725832036
000220 73 8b 65 fc 5c 3d c0 bf 27 42 e7 b8 93 38 cd bf
       -0.12687265705161685 -0.22828909424289742
000230 5d e4 08 c6 e0 93 df bf 19 58 00 c4 35 1d b8 bf
       -0.4934007581646876 -0.09419570956410474
000240 e6 60 14 95 9a 71 f8 bf 9c ac 0e 06 01 07 f6 bf
       -1.5277353118345274 -1.3767099606145967
000250 ba 20 dc c3 b5 8c 02 c0 c5 7e b2 fc db 24 bc bf
       -2.3187060643723187 -0.10993742865911844
000260 a6 d8 1a 92 38 3d 01 c0 64 36 43 49 7c 91 00 c0
       -2.1548930563395343 -2.0710378383289925
000270 9a fe 21 66 25 8a 22 c0 95 89 8c 39 dc fc f2 bf
       -9.269816581392025 -1.1867334602362452
000280 2f ed 8a 6d 53 97 e6 3f a4 2d 62 1f 8c bd ff bf
       0.7059723987107754 -1.9837762094419782
000290 22 2d 12 e7 f8 ec f1 3f e6 a5 0f f9 02 a9 d0 bf
       1.1203545595370277 -0.2603156501996565
0002a0 70 b4 6f 3f c1 9a f0 3f 2d c9 2c 90 a4 d8 f2 bf
       1.0377819517118745 -1.1778913146814134
0002b0 3f b5 e4 23 5c c2 14 40 10 be f8 4d 95 57 ee bf
       5.189804612001637 -0.9481913111575881
0002c0 c9 8a 76 08 11 92 a2 3f c2 fc 41 6c ff 19 b1 3f
       0.036270649226272385 0.06680294411670487
0002d0 6d 52 e9 1d 5e 25 d2 bf d2 40 4e b7 37 42 d3 bf
       -0.2835307399848606 -0.30091660405106524
0002e0 9e 57 0b ba 29 e0 9b bf 9d 95 9e 35 50 be 91 3f
       -0.027222301464312808 0.01732755019442821
0002f0 8f ef 70 56 61 86 c4 bf f4 d5 7c 7e 3b dd 80 3f
       -0.1603509590221361 0.0082344673133816
000300 a4 ab 37 c1 95 17 d7 bf 45 e1 46 54 d8 e3 de 3f
       -0.36081451290982103 0.482656557370792
000310 64 c9 14 00 42 09 c3 bf 18 c8 f7 3d ee 7f c2 3f
       -0.1487200260540461 0.14452913308883875
000320 14 c5 96 d9 84 58 d2 bf 36 31 9e 79 8a 8e d4 bf
       -0.28665276764793757 -0.3212000072169475
000330 fb 2a 02 2a e7 01 e9 bf 8d c3 c6 6a e8 36 be bf
       -0.7814822979429147 -0.1180253277477858
000340 e3 b3 8d 00 87 5b e1 3f a1 92 f6 6f bf 29 d4 bf
       0.5424227724848801 -0.3150480836286907
000350 93 9e c6 2f 0e d9 cf 3f 12 2c 91 fc f1 0d a8 3f
       0.24881150563054585 0.046981393891279435
000360 6a 7b 24 a9 14 69 f2 3f 8f 58 d7 ff 3b e1 cc bf
       1.1506544692162728 -0.22562360756154873
000370 bb d4 3f a6 fc 6b f2 3f cf c5 96 fa 8c 3a dc bf
       1.151363992129787 -0.4410736510427257

arr_3 f8 [3]
000000 02 6a e8 1f 01 1e e2 3f 9f a7 b1 6c 41 38 e7 3f
       0.5661626456451929 0.7256171343735679
000010 bb 2c cd c4 7e 8c f4 bf
       -1.284300583606451

arr_2 f8 [8, 3]
000000 86 4f b9 f2 42 a1 eb 3f 09 c1 9f 73 46 cf eb 3f
       0.8634352436733799 0.86905214865513
000010 73 67 09 a2 44 f6 ec 3f 42 3d 26 f2 36 c5 eb 3f
       0.9050620236186958 0.8678240518073965
000020 c9 4f 1c c0 7c cd ea 3f 04 6c 21 94 85 43 e9 3f
       0.8375838997039803 0.7894924061941997
000030 6b ec 2b 51 35 17 c0 3f 2c 00 73 41 36 ad c9 bf
       0.12570826018768186 -0.20059850879442942
000040 c7 ff e4 6b 31 5d bd 3f 77 ec ff 94 7b 00 cb 3f
       0.11470326313155886 0.21095223212600775
000050 c0 0c ba d5 a8 11 81 3f b2 4e 65 c5 5b bc ca bf
       0.008334464094565397 -0.20887324465239981
000060 8d af f5 2e a2 2d f1 bf 41 d0 c4 c3 46 c3 d7 3f
       -1.0736409983028097 0.37129372709319247
000070 89 31 e2 6a 3b be e6 3f c9 0b fa e0 a2 29 e5 bf
       0.7107216918534941 -0.6613325494839667
000080 ed 9b 6b 70 5f 89 d3 3f 1f c5 a7 b9 6f fb d6 3f
       0.3052595708708726 0.3590964615860503
000090 fd df 11 d2 47 4c cb bf fc 24 f3 a3 63 18 b9 3f
       -0.2132653976184428 0.09802839996986629
0000a0 67 91 44 bd 56 70 bf 3f 2c 69 8a 46 54 43 e6 bf
       0.12280790444180455 -0.6957188966510208
0000b0 1d 4c 4e 2e f4 e4 cb 3f 59 2c d2 de 28 4a df 3f
       0.2179246164419916 0.4889013458238814

arr_5 f8 [1]
000000 f8 3f 38 77 25 5f f6 3f
       1.398229089452796

arr_4 f8 [11, 1]
000000 f3 98 4e f5 c1 44 af 3f 09 75 61 54 04 2c a5 bf
       0.06107145423384166 -0.041351447391869973
000010 a1 40 7a 30 6c 3d c5 3f 66 5f 67 a6 76 21 d9 bf
       0.1659369694430142 -0.3926674485241989
000020 14 49 bc 34 7f d2 c8 3f 1f 0d 9d c5 b8 0d c2 3f
       0.19392385554289915 0.1410437550458505
000030 94 c3 f6 7f 7d 11 dd 3f 3f 97 72 b4 a9 51 d1 3f
       0.4541925191543268 0.2706093084510605
000040 2d 98 5d 31 98 e0 ec 3f aa ab ec c6 b7 d2 e3 bf
       0.9024163211986483 -0.6194723973506957
000050 7b 9f 0a 4f df 35 de bf
       -0.4720381042375192
