agent_params_nolimit/b7e8d74b-7b35-411c-aedf-4b5bc2802dc1.npz (npz, 2338 bytes, 6 tensors)

arr_1 f8 [8]
0	0x3fb590d4c870f757	0.08424119847856325
1	0xbfd5aac1eeee3356	-0.33854721386960784
2	0xbfb7b9164fded8ac	-0.092667955875046
3	0x3fb3d3b2db9f50c3	0.07744901525376506
4	0xbfdffc574133da79	-0.4997766625159908
5	0xbfe1d657144bf02c	-0.5574145695131896
6	0x3f946a5d965123a5	0.01993700246774534
7	0xbfa514994dbbe4b0	-0.04117278169537408

arr_0 f8 [14, 8]
0	0xbfb06bed76870bc3	-0.06414684432733879
1	0x3fb79efc2b130b66	0.09226966907139697
2	0xbfcb03876d0ccca2	-0.21104519676882655
3	0x3fb8b51229ff3c93	0.0965129234821112
4	0x3fc6a1a7e4b99f6a	0.17680834453789923
5	0x3fe2380e0955ba8c	0.5693426306077796
6	0xbfc1ee9b862223f5	-0.140094223494344
7	0xbfd7c19d7cfcfd2a	-0.37119233327753653
8	0xbfcaef90f1d330b4	-0.21043597991809337
9	0x3fec0a54a1aa9f82	0.8762610585736044
10	0xbfcc558b307d4210	-0.22136058681145743
11	0x3ff6c53bb5a43e06	1.4231526465772517
12	0x3fee569166da02e9	0.9480673798389861
13	0x3ffab20d60330fce	1.668469787387028
14	0xbfd52acb6d384acf	-0.33073697725300816
15	0xbfe380e0e02b7093	-0.6094822290720167
16	0xbfe688f378c4e401	-0.7042176588794292
17	0xbfec08ed99b6c07d	-0.8760898592208971
18	0xbff3507fb589cc7a	-1.2071530429209631
19	0xbfcb1bc727070625	-0.2117852154315624
20	0x3fc94e3a6db22819	0.1976998363136893
21	0xbf8261bf374603fa	-0.008975499986947345
22	0xbfd2a90db3248bcd	-0.2915682076874731
23	0xbfe53e1218458e98	-0.6638269876534251
24	0xbfedc86e274e5563	-0.9307165878005147
25	0x3fe3d907b185f7f5	0.6202429263355486
26	0x3fc57e7ac6a0a4c0	0.167922350870219
27	0x3ff180b0ae1d1a61	1.0939184953037044
28	0x3fc53466730e26a4	0.16566162698682263
29	0xbf9d53aeb60fb8cb	-0.028639535772463625
30	0xbfe321e7af153b6b	-0.5978887958134299
31	0xbfdb3cb0a9d9baf9	-0.4255792292305354
32	0xbfa9d33a1cd4740e	-0.05043965913703384
33	0x3fb05ece8449b0bc	0.06394663552936469
34	0x3fd29b336d68d648	0.29072271046183973
35	0xbfe9109fee2d3d13	-0.7832793857468537
36	0x3f909306231d3eb6	0.016185851948931705
37	0xbf9008838a2f9ee5	-0.01565747767372629
38	0x3f9f35fb85c2b5a1	0.030479364432428494
39	0xbfc1a433a08c1bef	-0.13782353724693006
40	0x3fb8fc7fae91d2db	0.09760282527879431
41	0x3ffe6ba6850eff31	1.901281852493366
42	0x3fd79a31cd17a4ae	0.3687862875800175
43	0x3fd7d3a162294b06	0.37229189477982094
44	0x3fe617ff7da5a17e	0.6904294446986083
45	0xbfa2f5abe1abb329	-0.037030574128812006
46	0x3fcc03086282c318	0.2188425522813524
47	0x3fcd1077707339e6	0.2270650195191159
48	0xbf94a8e7f98a5b9a	-0.020175575834027272
49	0x3fa926989c0321d6	0.04912259010740498
50	0xbf9ad8131e1b9087	-0.026214884483934966
51	0xbf97ecf92c7c7fa6	-0.02336491903326956
52	0xbf63ad7a0fac31ce	-0.0024020561226107745
53	0xbf95e870deda43f5	-0.021394504167407253
54	0xbf9099cb27f8bf96	-0.016211675944020586
55	0xbfa587d533c09fc5	-0.04205194718116404
56	0xbfd4e7234844d4e9	-0.3266075330496521
57	0x3fd43ed55389b334	0.31633504064557205
58	0xbfd0765546c1edeb	-0.2572224799148148
59	0x400ba9bf2d0182d2	3.4578841701589704
60	0x3fe564f0feac39d0	0.6685719465329445
61	0x3fcce5943f8b90f5	0.22575619795600912
62	0xbfce4b4d82b0d9e6	-0.23667305833232816
63	0xbfdbafbe04f141f6	-0.43260145647675985
64	0x3fa4f28bafe3e8ed	0.04091297647569712
65	0xbfbfa575aaebee5d	-0.12361846373453873
66	0xbf975e277a906678	-0.02282010732242276
67	0xbfb0ed6f7cdeca25	-0.06612297819700837
68	0xbfd36183e3a8b2a5	-0.3028268550140559
69	0xbfcf4e67945540fa	-0.24458021872352004
70	0xbf931d667d75df88	-0.018666840941903767
71	0x3fb47231f0049eee	0.07986747846427608
72	0x3fdb3cdff0a1ae77	0.42559050082375144
73	0x3fdbfec1598edbbd	0.4374240278806914
74	0x3fe8176bf4989562	0.7528590943590354
75	0xc00742419f96bab0	-2.907351729190246
76	0xbfc602432b16bd42	-0.17194404224344778
77	0xbfaa4e453e55953f	-0.05137840639035084
78	0x3fef0756ff3eccd8	0.9696459756145499
79	0x3ffb480fcd62c537	1.7050931952365553
80	0x3ffa799edf14b8fa	1.6546925272082817
81	0x40044ed90ca754ba	2.5384999264302595
82	0x3ff4ea080c69ada7	1.307136581885837
83	0xbffffbca9209edc3	-1.99897248312378
84	0x3fd44edf3675c927	0.31731396025056074
85	0xbfb24eb8d1f1d95b	-0.07151370168307862
86	0x3fee88264291f04e	0.9541198063084353
87	0x3ff4233f7c303536	1.2586054659944472
88	0xbfcbba5f68876486	-0.21662514308880904
89	0xbfa240c4536e7240	-0.03565038221788486
90	0xbfc6561870ed313d	-0.17450242532721374
91	0x3fa030dd8a1b992e	0.03162281332861237
92	0xbfa5e31d19b25ddd	-0.0427483648174378
93	0xbfb039e06147d195	-0.06338312506688333
94	0xbfb721d5c43403b9	-0.09036003151051276
95	0xbfa3314e669557e3	-0.03748555185545379
96	0x3fcaabe8023fddf9	0.2083711634620469
97	0xbfe4f5e97fbd0ce1	-0.6550185675518173
98	0xbfc3666e29a3845e	-0.15156342538014916
99	0x3fc9ea7ae858d3e3	0.20246826500957046
100	0xbfee5a83849ee604	-0.948549040818023
101	0xbff05eb6254225e6	-1.0231229262739077
102	0x3fb684d8a8befbf5	0.08796457404876874
103	0xbf93ca2f2823765b	-0.019325959038601997
104	0xbfa16474f6e18612	-0.03396955026324745
105	0x3ff3026ea1e394fb	1.188093788508296
106	0xbfdab08e0562eeff	-0.41702604795476356
107	0x3fb107e9dddc4ee8	0.06652700106161158
108	0x3fd2971aabd92a89	0.29047266752301276
109	0x3ff31e840e274c8d	1.194950156485706
110	0xbfdc80f1d2844cea	-0.44537015493661036
111	0xbfd2d3062e86d19e	-0.29412989181153104

arr_3 f8 [3]
0	0x3fed6d04e7b1c2a6	0.919558002975539
1	0x3fe55dd5b66977ea	0.6677044451459981
2	0xbffaee28d04ddb1e	-1.6831443917159912

arr_2 f8 [8, 3]
0	0x3ff683188c341221	1.4070058323569656
1	0x3fc86c58b1079300	0.19080647129080575
2	0x3fcc0052973e2c59	0.21875984558969
3	0x4013c97d3e9b89a6	4.946766832583682
4	0x4013e3af271d06fd	4.972347842356382
5	0x401417a90de6a5d2	5.023105828478451
6	0x40081a6f589c0f6e	3.0129076883912864
7	0x4010ca99b0c6a5b4	4.197851907848804
8	0x4010d0d12e3ffe44	4.2039229609068265
9	0xbfe9d80ffb359f5b	-0.8076248079714604
10	0x3fce2f433959a768	0.23581733990004783
11	0x3fdffdc70427410a	0.49986434369658694
12	0xbfe8faea558ca100	-0.7806293173680672
13	0x3fe5fc37a97c3729	0.6870382604845179
14	0x3fe5a695027e7629	0.6765847252569915
15	0xbfdd59ed9896efa2	-0.4586137762196306
16	0xbfd698f9356ba10a	-0.353086759727845
17	0x3fe6bef74b6c5fcb	0.7108112786399884
18	0x400b20522166c188	3.390781651447643
19	0x400a6fdc2b9a834f	3.3046191603211024
20	0x400a2920966ea427	3.270081687213423
21	0x3fd35aa4ad325927	0.30240742601144394
22	0x3fd3c65b60ebc22a	0.30898174729284966
23	0x3fccc40f7b8c98d5	0.22473329098392605

arr_5 f8 [1]
0	0x406f42357e1e9d55	250.06902986506853

arr_4 f8 [11, 1]
0	0x400131d99b26f3a8	2.149340831876959
1	0x401e20949951d179	7.531816859835424
2	0x40076b2a833ef69a	2.927327180251109
3	0x3ff2fae7932a316a	1.186256003248753
4	0x400f8c6294836710	3.9435474016762626
5	0xbfd275aabb452897	-0.2884318188486161
6	0x40036b8f12b4bbde	2.4275189839749904
7	0x3fe9b9f54a655b02	0.8039499714894591
8	0x3f9623fa98dff6e3	0.021621623593083405
9	0x3f776aac96b2ff05	0.0057169667954324365
10	0x3fb0a74c56b97fbe	0.06505276791858614
