agent_params_nolimit/c51dafff-3da3-43ff-b56b-195ce2f87e86.npz (npz, 2338 bytes, 6 tensors)

arr_1 f8 [8]
0	0xbfc2009eb3a83d57	-0.14064391872714552
1	0x3fc6275f93fc5f4f	0.1730765793406541
2	0xbfabe2d14291a3eb	-0.05446485459908231
3	0x3fa376c3f8404f52	0.038015483907797645
4	0xbfbab328afd9fe1e	-0.10429624837160431
5	0xbfbee91d1c275d19	-0.12074453294132005
6	0xbfd32af01c6da0d2	-0.29949572349734155
7	0xbfa3a78bf72081fd	-0.03838765517889795

arr_0 f8 [14, 8]
0	0x3fc51cbddd8d77f8	0.16493962591169953
1	0x3fdbce5e06d13fe2	0.4344706598831164
2	0xbfedbbccd9cf49d6	-0.9291748289199926
3	0x3fb1c93530af27f3	0.06947643698290999
4	0x3fe7bcda4f41b0fc	0.7418033168774225
5	0x3f65193fda7a4205	0.0025755164277330178
6	0xbfff6f4c00afb01e	-1.9646720911796431
7	0xbfd7c522e47d64a4	-0.371407244810664
8	0x3fec9091d60d4d24	0.8926476650907813
9	0xbfe2d92bfa971f59	-0.5890102285711506
10	0x3fc7e747eb3a1a87	0.1867456339425255
11	0xbfc0999856309e7e	-0.12968734940044507
12	0x3ff55da833d40fa0	1.3353654884858557
13	0x3ff471275046dfd9	1.277625382977922
14	0x3ff3a143af42a352	1.2268711896997115
15	0x3fe50017e4073029	0.6562613919900332
16	0xbfe1c6a8249bb7e6	-0.5555000987058036
17	0x400048452da020c3	2.0352881969921284
18	0x3fd4a6688e5c5464	0.32265676405342547
19	0xbfbc308f6fab0960	-0.11011597133896123
20	0x3fab90a0173e28d7	0.053837778889901315
21	0x3fee4a422358dd9f	0.9465647402166047
22	0x3f9c87ea09233ceb	0.027862221534459868
23	0xbfe102c561acc2c7	-0.5315882594787461
24	0x3fece317876d8a87	0.9027211804462504
25	0xbfe021d1d477febf	-0.5041283750324154
26	0xbfd8d53f6f7cf27c	-0.38801561248309446
27	0x3ff318c8af029541	1.1935507618266714
28	0x3fbfe12da3f5aad7	0.12452969792290546
29	0xbfda64051f72db57	-0.4123547370067419
30	0xbfca466af3ec3139	-0.20527398023876645
31	0x40065732b823f48a	2.7925772081349054
32	0x3fb490f7a4f1a32b	0.08033702637625299
33	0x3fa0f874bc9d8ef1	0.033145568870876725
34	0xbfcbceaaec99e593	-0.21724449684897404
35	0xbfe0f27997cdf1f4	-0.5295989956790081
36	0xbf9bb18a065e63c7	-0.027044445646968087
37	0xbfd53ff36e347fd0	-0.3320282531949461
38	0x3fd048d3f59f62cb	0.2544450663240638
39	0xbff29203f54e8af2	-1.1606483061120199
40	0x40002e848f72aa1b	2.022713776289732
41	0xbfe7609cabc1792f	-0.7305434565167043
42	0x3fe82145acd6344f	0.7540615440099233
43	0xbfb64990b2efad52	-0.08706001633224972
44	0x3fdbc1eb3af6ff5e	0.43371086843761997
45	0x3fda01feafbbdc0d	0.4063717571402215
46	0x3fd999aa5465067e	0.40000398866332165
47	0xbfabe63172d54c36	-0.05449060942432775
48	0x3fba0b658fb3730a	0.10173640020680011
49	0xbf827da13e94b7dc	-0.009028682443922458
50	0x3fa86dafe63b20d1	0.047711846212736504
51	0xbf8c79feb6457be7	-0.01390456193683849
52	0x3fa7946c3bd018e9	0.04605425100457856
53	0x3f98d38e76704adf	0.02424452398197274
54	0x3fc6a93e9e0ca2bf	0.1770399352765448
55	0x3f6f2424208858bc	0.0038014131171265324
56	0x3fe8fb4e9e9ad48f	0.7806771371603122
57	0xbfe4c3e33bb91d4d	-0.6489120642153609
58	0xbfd59651ffa3f8b5	-0.33729982342618864
59	0x3fa4dad2e18d57c5	0.040731992753236614
60	0x3fed73db6c9ff1e6	0.920392715604575
61	0x3ffc6d38df682d5d	1.776665566142433
62	0x3fc9c7f47d9b2a85	0.20141464360343178
63	0x40060984df0971dc	2.754647963023883
64	0xbfb74d6210f310d1	-0.09102452195935774
65	0x3fd42a7915872dda	0.3150923452601241
66	0xbfd4df945882311f	-0.3261462082234789
67	0x3fb97d4692d6477e	0.09956780514610661
68	0xbfcc86ae50e38624	-0.22286013555189854
69	0xbfd9afc5e6b781f0	-0.4013533356756218
70	0xbfebc6404703710d	-0.8679505717259716
71	0xbfc52a24c34f0dae	-0.16534862076342222
72	0xc00581ce7fb95f4b	-2.6883821466871374
73	0xc00361701daf90e0	-2.422577125473353
74	0xc010526cb32b982b	-4.08049278215007
75	0xbfc8b5ff11fb851c	-0.19305408838321447
76	0xc00e56633a7e0eda	-3.792181450817094
77	0xc00d2821f8698657	-3.6445960433200457
78	0xc0305080d56266c2	-16.314465843700198
79	0xc000b4aba08c0e64	-2.0882179777852787
80	0x3ff3e31ee50a2017	1.2429493853433138
81	0xc00bed9973d46589	-3.4910153435891442
82	0x3fff8e63bf13feed	1.9722630943287485
83	0xbfdd4b497f165003	-0.45772015963416396
84	0x3ffd3b20486790b5	1.8269350841810994
85	0xc00094cc8d735b1d	-2.072655778010257
86	0x402244ddfa062ce3	9.134506047490907
87	0xbffab1b28a01c921	-1.6683831587693663
88	0x3fb07429eeba9ff0	0.06427251890511321
89	0x3fbe35dddad674cd	0.118009439398935
90	0xbfdfe8b6f83b06aa	-0.49857877961413044
91	0xbfe0ef0696e4b2e3	-0.5291779467712242
92	0xbfa84eacd6ad61d7	-0.047475243764612145
93	0x3f9faccc96f0a847	0.030932614052439324
94	0xbfd208b785b393ce	-0.28178203636917665
95	0x3f8e92f8c63a42de	0.014928763913560624
96	0xbfe44ea15bd6f66c	-0.6345984262222379
97	0x3feb327c8e5a317c	0.849912908584471
98	0xbfd0b954229d3ea4	-0.2613115633039149
99	0x3fd04ec51ee7e01f	0.2548077394308183
100	0xbfe0215ede109b56	-0.5040735566334245
101	0xbfe213787dabc46e	-0.5648767904768996
102	0xbff5ffe5a101835d	-1.3749748505872141
103	0xbfca887096f77d3e	-0.20728881236480307
104	0x3fee90313ea35dc3	0.9551016066933972
105	0xbfe1bac5c8852320	-0.5540493885428965
106	0x3fdc0dd828c6b279	0.438344993420095
107	0x3fb54794361318e3	0.08312345810108783
108	0x40003469100e41d8	2.025591016230674
109	0xbfd962e950b42641	-0.39666207200261644
110	0x400036f7c61577f6	2.0268397784520813
111	0xbfe8d3cd4901422f	-0.7758547235371845

arr_3 f8 [3]
0	0x3fcd70ce4415c9b1	0.23000505756824688
1	0x3fd2dce5885287e0	0.29473245918972957
2	0xbfe0ad4b1033346f	-0.5211539570242517

arr_2 f8 [8, 3]
0	0x3fda1f775aa9ac39	0.40817054609096065
1	0x3fda4ae567531047	0.410821295645523
2	0x3fdb615303db8996	0.4278152024909557
3	0x3fda41668527b86c	0.41024172786172275
4	0x3fd9579571c5eb3a	0.39597068892151166
5	0x3fd7e3bd96f1edc8	0.37327518215871835
6	0x3faebaeb6a9824e3	0.06001983333778484
7	0xbfb80e8c9f2918bc	-0.09397200475459305
8	0x3fac1231e7f9555a	0.054826316420682544
9	0x3fb9a9e23537a8cf	0.10024846839192779
10	0x3f72f534efd5863d	0.004628378662660246
11	0xbfb90e785cc57e95	-0.09787704720428743
12	0xbfe030ffab06c065	-0.5059812870367862
13	0x3fc6847607ce9eb9	0.1759173906441356
14	0x3fd582af9210a93a	0.3361014295975512
15	0xbfd3ee07d42adc67	-0.31140323371386675
16	0x3fc2874f3ddc453f	0.14475431938675773
17	0x3fc5c7d7b9081d10	0.170161214206225
18	0xbfb9964f825e2bb2	-0.09994980747994367
19	0x3fa80ac15aac23ba	0.0469570563491923
20	0x3fae0783eb411e29	0.05865108725316432
21	0xbfd4f7e7d82c0620	-0.3276309596113567
22	0x3fba81867f9a5c4d	0.10353890052134425
23	0x3fcd9f24e20dc21e	0.2314191917207759

arr_5 f8 [1]
0	0x400a38d445289f19	3.277748623182458

arr_4 f8 [11, 1]
0	0x3f9f2f26c4d45239	0.030453305972587528
1	0xbf9407815744f325	-0.019559880210397246
2	0x3fb4e79e696ee7cf	0.08165922235539756
3	0xbfc8763829b0aa44	-0.19110776935242957
4	0x3fb8673c2b2d05bf	0.09532524160478938
5	0x3fb1cb01076efce8	0.0695038455150897
6	0x3fcc78153e46e3cf	0.22241464177002832
7	0x3fc0fea248c9174e	0.13277081064205237
8	0x3fdc3df9bf4fba1b	0.4412826889301031
9	0xbfd3519f3a263792	-0.3018568103660694
10	0xbfcd6c3364ea6d21	-0.22986452510381475
