agent_params_nolimit/d1b9974f-f5fa-4b68-b91a-193cad4de2fe.npz (npz, 2586 bytes, 6 tensors)

arr_1 f8 [5]
-0.03614773599527665 -0.0032901355488667385 -0.01771282110849403 -0.013374646403341581 -0.038205739674413194
00000000: e02a d9bf f481 a2bf 5505 9e12 eaf3 6abf
00000010: 7e05 864d 4f23 92bf a5ee 2ea7 2a64 8bbf
00000020: ae99 d7e4 b38f a3bf

arr_0 f8 [9, 5]
-0.04075325614503415 -0.06719988420958307 -0.07754263327574765 -0.06306500602735203 -0.06962835715271394 -0.023690184330914722 -0.02522805200765539 -0.024483731534536524
-0.02633120896071097 -0.019971386918118086 -0.059157587987279915 -0.10399847733612802 -0.12360476021876736 -0.08510722028118338 -0.12174925621532834 -0.051544673014218605
-0.08628688673466818 -0.09684170853200193 -0.07836800546023627 -0.09044383759576752 -0.12239860705930064 -0.2464447573926069 -0.2942467516678437 -0.2139596475934998
-0.2806074521089195 -0.030353083171429904 -0.03132889870900572 -0.032153158032180676 -0.03420616712229567 -0.02924494478874415 -0.020965995038503424 -0.01810987347343065
-0.016911856560909714 -0.021485500764892935 -0.02477143693039338 -0.027977368513902902 -0.047150200757699524 -0.04508814789635718 -0.033415227406465776 -0.037190778904678035
-0.030052573046759633 -0.028044853183474786 -0.04009464504980638 -0.028099900079416533 -0.039778812310257344
00000000: c665 b25c 9cdd a4bf 2da3 f9f8 0234 b1bf
00000010: 020e f781 d5d9 b3bf 4bd6 683a 0725 b0bf
00000020: 6559 d8fc 29d3 b1bf 7afd bf5b 3d42 98bf
00000030: 1438 42e9 61d5 99bf 7d46 e668 4312 99bf
00000040: 26ce 6685 91f6 9abf 2723 ad16 6173 94bf
00000050: 6564 6e43 e749 aebf 5212 feea a49f babf
00000060: c3ff c4c2 8fa4 bfbf c3da c237 96c9 b5bf
00000070: 3cd5 c191 f52a bfbf 1f17 c239 1064 aabf
00000080: bd5b 99bc e516 b6bf 61a1 0843 9eca b8bf
00000090: 9124 81f4 ec0f b4bf 043b 99cc 5327 b7bf
000000a0: 6249 65de 8355 bfbf a6cd a276 808b cfbf
000000b0: 1f87 d753 f0d4 d2bf 43f4 899c 0763 cbbf
000000c0: a996 74f5 78f5 d1bf 595b 37ee e014 9fbf
000000d0: c6ef bf66 570a a0bf 3234 6cf4 6076 a0bf
000000e0: f639 3982 7883 a1bf b890 c305 63f2 9dbf
000000f0: ece9 121c 1c78 95bf 475b 3609 658b 92bf
00000100: 1100 607b 5751 91bf 155c 7e8c 4b00 96bf
00000110: d8bf f6fd ae5d 99bf 0a71 2e6b 19a6 9cbf
00000120: 7520 8234 1224 a8bf 80db 4d31 cb15 a7bf
00000130: 7560 ccf9 cc1b a1bf d07a 3776 ab0a a3bf
00000140: d3ff 9509 1ac6 9ebf 5401 fa3c cab7 9cbf
00000150: 8aa0 770a 4987 a4bf 1ea6 725f 38c6 9cbf
00000160: 7c7e e473 e35d a4bf

arr_3 f8 [4]
-3.043869576972851 -3.395687410752377 -1.8096756090005377 4.2688656106559435
00000000: 1d1a f34a d859 08c0 89f6 4429 5e2a 0bc0
00000010: 496b 5069 6ef4 fcbf 3825 b381 5113 1140

arr_2 f8 [8, 4]
1.1788795027606358 1.5918384570351551 0.5706305846942051 -0.4974539165032515 0.49154726206387866 0.26337252990480287 0.9482609585731681 -0.24641583582498253
0.2111295548267031 0.0999322121456459 0.2639747434256634 -0.04692530898932353 0.4282654861055811 0.00796351126976535 0.037398287076809346 -0.0942643135031861
0.532491642596831 0.3300393612722975 1.0673793694426434 -0.2455749266366057 0.514131958255615 0.3143797378424297 1.1412567978955885 -0.2182947423411039
0.5692827305184744 0.3583589381132862 1.1527098720633002 -0.22887228942671287 0.038580221053945006 0.01692017474655314 0.08687595949801205 -0.050194025442501365
00000000: bb81 e4c0 b0dc f23f 8eb2 179a 2b78 f93f
00000010: ad7c 6b12 9b42 e23f 5582 a9f3 48d6 dfbf
00000020: 3e2c c0a5 8275 df3f 3cc7 a674 18db d03f
00000030: daa6 a45d 2758 ee3f e5da 0ada 8d8a cfbf
00000040: b690 9912 4b06 cb3f 0484 fb4e 2895 b93f
00000050: 00ed 7e52 f6e4 d03f 5b7c ed16 9806 a8bf
00000060: 8d0e 35a4 b368 db3f fd41 b863 2c4f 803f
00000070: adb6 d747 de25 a33f 4913 adbf b421 b8bf
00000080: 3f18 cbe9 2b0a e13f eea9 c369 5d1f d53f
00000090: 6ce6 c263 fc13 f13f d397 4fcb ff6e cfbf
000000a0: 6629 51dd c473 e03f 02bb 2331 cc1e d43f
000000b0: aac9 f47c 9642 f23f 7034 9f05 15f1 cbbf
000000c0: 4824 b86a 9037 e23f 2941 db53 5aef d63f
000000d0: 8b9c 24e8 7f71 f23f 4331 06eb af4b cdbf
000000e0: 43f6 6567 c9c0 a33f 1959 b7b4 8553 913f
000000f0: d642 dabc 803d b63f 4bd4 7503 08b3 a9bf

arr_5 f8 [8]
-0.28102131801080654 -0.37176381178201695 -2.327510295169923 0.1648507930339988 -0.432022086977784 -0.39292956881855845 -0.44185752212185847 -1.4558541329245298
00000000: 6874 95d6 40fc d1bf fb29 5c71 faca d7bf
00000010: 71dd b6b7 bd9e 02c0 fe7c 66ae d419 c53f
00000020: 3008 aef7 3fa6 dbbf f640 ed0f c225 d9bf
00000030: 9251 c0c5 6447 dcbf 4584 0ab4 2d4b f7bf

arr_4 f8 [12, 8]
-0.2265046735427296 -0.5711103829439069 -0.04157416752292123 -1.0705965679339307 -0.585638746668249 -0.6399203513789233 -0.6084740673294722 0.041366464917146475
-0.1437299108147899 -0.3739470221140158 0.04724349381061547 -0.8187884561895978 -0.3320660853419659 -0.31685839213123085 -0.30205558820880124 0.12231986312561982
-0.24514538799665814 -1.03359059293758 0.34921509064961626 -1.6759688338910839 -0.9829733615140087 -1.0678960932221824 -1.0027155332483453 -0.2033293075814953
-0.39596331148977265 -0.7517666639248571 -2.4962854752667196 0.2924951276334759 -0.8263500241948439 -0.7873946572396644 -0.8423256721939233 -1.5139341448577677
-0.3377512364444952 -0.44812442904075483 -2.1898774236486225 0.02122291225217817 -0.486257857473903 -0.4596209169291233 -0.4892054910215464 -1.1759393688486766
-0.16169176401603472 -0.20326915322716374 -2.1358333275069596 0.0719564567315895 -0.2272846095454173 -0.21257052241423835 -0.2216233817241078 -1.1370789968900052
-0.15933141677181467 -0.20691519612113865 -2.1330563506923075 0.06979060334702107 -0.2266592022489716 -0.21345647922899672 -0.2212410281512495 -1.137032160939324
0.0005831016623182232 -0.01307034064361156 0.15587890136489765 -0.014374489326000517 -0.014549086296916999 -0.013278261945944352 -0.01704203265113457 0.03143814910665621
0.0036556763937592674 -0.005479310717375458 0.2860645731916954 -0.01358895146894231 -0.0130112954231994 -0.0047708114707636015 -0.006003684104948955 0.07427822045777746
0.0031001312255003787 -0.007758588142681691 0.33684547574424506 -0.021155960153161832 -0.00951874326905046 -0.006830985456163335 -0.006217700384211365 0.09025793762285962
0.0014432347482316484 -0.004987263562635549 0.2498925965733826 -0.017179414026552764 -0.005059116022355171 -0.01172595701345319 -0.007600673868554663 0.06239548846417868
0.0037234817132264283 -0.0022889448717699013 0.3213622635253226 -0.021255474238171795 -0.007434728954536221 -0.011208672553246314 -0.00469734898092724 0.08745683505172867
00000000: 47eb a0ea 1afe ccbf c1cd 2448 8946 e2bf
00000010: 541e bd93 3549 a5bf f6c6 e7dd 2921 f1bf
00000020: e5bc 0678 8dbd e2bf 28f4 a63e 3a7a e4bf
00000030: 2a9d 749b 9e78 e3bf f2c7 f03b fc2d a53f
00000040: d308 34e1 bd65 c2bf 71a4 9a7d bfee d7bf
00000050: 0512 bb99 4c30 a83f 21a7 35d9 8333 eabf
00000060: 24e3 291c 9240 d5bf 87ac ea6b 6847 d4bf
00000070: f592 3bf6 e054 d3bf 7896 c6c3 5a50 bf3f
00000080: 0afe 1a90 ec60 cfbf 27ec 214a 9689 f0bf
00000090: 9706 6740 8a59 d63f e2d6 2ab2 c4d0 fabf
000000a0: db56 118d 8474 efbf a5a5 be36 1a16 f1bf
000000b0: b0e2 6771 1f0b f0bf 9abf 30db b106 cabf
000000c0: 7fec 5080 7657 d9bf 17f8 78f6 780e e8bf
000000d0: c600 ee84 64f8 03c0 3f35 db7b 3db8 d23f
000000e0: b7e6 1e9b 7571 eabf b076 bc47 5632 e9bf
000000f0: 87ee d4f7 54f4 eabf b163 8702 1339 f8bf
00000100: 639c ad5c b79d d5bf 9f32 d115 12ae dcbf
00000110: 7b8e 6674 de84 01c0 9628 3288 75bb 953f
00000120: 1580 d146 d91e dfbf d628 b1d9 6d6a ddbf
00000130: b483 3d8c 244f dfbf 0c8b b4cc a5d0 f2bf
00000140: 219f 3dd3 50b2 c4bf 57b9 b23e b904 cabf
00000150: 43cb 9ac8 2f16 01c0 7bf1 6504 bd6b b23f
00000160: 70db 707e a917 cdbf dc6f eec8 8235 cbbf
00000170: 0959 44ac 275e ccbf e5c6 09bf 7931 f2bf
00000180: 2e51 21cc f864 c4bf 295f 3178 327c cabf
00000190: 11fd 15d9 7f10 01c0 638d f106 ccdd b13f
000001a0: 9396 7f32 2b03 cdbf 3d34 b4ba 8a52 cbbf
000001b0: 45b5 3842 a051 ccbf f1c0 9ba2 4831 f2bf
000001c0: bc7b f248 691b 433f 3c27 e56c 9fc4 8abf
000001d0: 9bd3 bfff d6f3 c33f 8d3c 6a4c 5f70 8dbf
000001e0: 4bd0 a74e e9cb 8dbf 69c5 7126 a231 8bbf
000001f0: 5e71 9373 7773 91bf 600c 853c a918 a03f
00000200: b662 ca51 82f2 6d3f 473b 5f45 7971 76bf
00000210: 0ec3 99c8 e14e d23f 2c16 2b31 86d4 8bbf
00000220: 21e4 9182 aaa5 8abf d881 e0f3 8e8a 73bf
00000230: 492a 2eae 5197 78bf e2d5 abbf e503 b33f
00000240: 4a36 4247 7265 693f 6a0e 6025 78c7 7fbf
00000250: 4e22 8853 e08e d53f 2cab e473 e8a9 95bf
00000260: 8915 5118 907e 83bf 7986 23b2 cefa 7bbf
00000270: b17b e73c bb77 79bf 416a 4bea 241b b73f
00000280: d0a0 d282 5da5 573f e96b 5e5e 866d 74bf
00000290: 1dc9 e508 7bfc cf3f a04a a2f5 7a97 91bf
000002a0: db8e cd1d deb8 74bf 1fbf 184f c703 88bf
000002b0: 728b 165b e221 7fbf 6641 be2c 4df2 af3f
000002c0: cc1e f005 b580 6e3f 122d bbeb 43c0 62bf
000002d0: 78a0 0007 3391 d43f 6b0d dbba fec3 95bf
000002e0: f601 6edb e073 7ebf 01d3 6190 92f4 86bf
000002f0: 1905 0404 873d 73bf 03dd 5b36 9263 b63f
