agent_params_nolimit/defdf3c4-85aa-4ad0-b933-3fcbb8e2b184.npz (npz, 2338 bytes, 6 tensors)

arr_1 f8 [8]
0.08426176452313947 -0.3385266478250316 -0.09264738983046979 0.07746958129834128 -0.49975609647141456 -0.5573940034686135 0.01995756851232155 -0.04115221565079787
00000000: 761d eed2 2d92 b53f cee9 4eac 6baa d5bf
00000010: 8db2 6145 bdb7 b7bf e276 1ce6 0bd5 b33f
00000020: f190 94fe 00fc dfbf 694b fcf2 2bd6 e1bf
00000030: 1fbc 45c0 c16f 943f 7398 c138 e711 a5bf

arr_0 f8 [14, 8]
-0.06493228321562272 0.09148423018311304 -0.2118306356571105 0.09572748459382727 0.17602290564961529 0.5685571917194956 -0.14087966238262795 -0.37197777216582045
-0.21122141880637732 0.8754756196853204 -0.22214602569974137 1.422367207688968 0.9472819409507022 1.6676843484987443 -0.3315224161412921 -0.6102676679603006
-0.7050030977677132 -0.8768752981091811 -1.207938481809247 -0.21257065431984634 0.19691439742540534 -0.009760938875231275 -0.292353646575757 -0.664612426541709
-0.9315020266887987 0.6194574874472646 0.16713691198193506 1.0931330564154207 0.16487618809853868 -0.029424974660747557 -0.5986742347017139 -0.42636466811881935
-0.05122509802531777 0.06316119664108076 0.2899372715735558 -0.7840648246351377 0.015400413060647775 -0.01644291656201022 0.029693925544144562 -0.138608976135214
0.09681738639051038 1.9004964136050821 0.3680008486917336 0.371506455891537 0.6896440058103244 -0.03781601301709594 0.21805711339306846 0.22627958063083195
-0.020961014722311204 0.04833715121912105 -0.027000323372218898 -0.02415035792155349 -0.003187495010894706 -0.022179943055691185 -0.016997114832304518 -0.04283738606944797
-0.32739297193793604 0.31554960175728813 -0.2580079188030987 3.4570987312706865 0.6677865076446605 0.22497075906772518 -0.2374584972206121 -0.43338689536504377
0.040127537587413185 -0.12440390262282267 -0.023605546210706693 -0.0669084170852923 -0.3036122939023398 -0.24536565761180398 -0.0194522798301877 0.07908203957599215
0.4248050619354675 0.4366385889924075 0.7520736554707514 -2.90813716807853 -0.17272948113173173 -0.052163845278634775 0.9688605367262659 1.7043077563482716
1.653907088319998 2.5377144875419755 1.3063511429975532 -1.9997579220120638 0.3165285213622768 -0.07229914057136255 0.9533343674201513 1.2578200271061635
-0.21741058197709298 -0.03643582110616879 -0.1752878642154977 0.030837374440328445 -0.043533803705721734 -0.06416856395516726 -0.0911454703987967 -0.03827099074373772
0.20758572457376295 -0.6558040064401013 -0.1523488642684331 0.20168282612128652 -0.949334479706307 -1.0239083651621914 0.08717913516048481 -0.02011139792688593
-0.034754989151531385 1.1873083496200123 -0.4178114868430475 0.06574156217332765 0.28968722863472884 1.1941647175974222 -0.4461555938248943 -0.29491533069981496
00000000: 209f ddf0 669f b0bf 0978 bcb0 826b b73f
00000010: 5116 382a 441d cbbf 36a9 a8af 9881 b83f
00000020: bb55 8e27 eb87 c63f 20e8 0ada 9e31 e23f
00000030: a46d 4d43 5808 c2bf 01a2 92db 7bce d7bf
00000040: 637a feae 4d09 cbbf 16cd 5f72 e503 ec3f
00000050: bf8b a8ed 476f ccbf d1d4 fe1d 04c2 f63f
00000060: 7d30 8f37 2250 ee3f 99a6 8dc8 d5ae fa3f
00000070: a6ef cdcb a937 d5bf ff42 760f 5087 e3bf
00000080: 6db6 0fa8 628f e6bf e992 01c9 5c0f ecbf
00000090: af35 2f4d b753 f3bf d44f 32e4 8335 cbbf
000000a0: 6ade 86b0 7d34 c93f e19e fa09 8bfd 83bf
000000b0: a430 ba11 ecb5 d2bf 0461 9047 8144 e5bf
000000c0: cf27 9956 ddce edbf 8925 3b82 98d2 e33f
000000d0: 115b 7509 be64 c53f 2cb1 7716 797d f13f
000000e0: f5dc e2b5 a91a c53f 3f06 6a9f 9421 9ebf
000000f0: d70d 60de 5628 e3bf d05f 6f08 8f49 dbbf
00000100: c89a 8111 2d3a aabf 5f1d f309 552b b03f
00000110: 7131 d30e 558e d23f 7f0f 781d 0f17 e9bf
00000120: 85e2 8573 408a 8f3f 59ec 8973 69d6 90bf
00000130: 2d68 689c 1568 9e3f 9e65 b75d f0bd c1bf
00000140: 7e3f 3b34 06c9 b83f fc95 69ed 6e68 fe3f
00000150: d7ff 816e 538d d73f 2fa6 9303 c3c6 d73f
00000160: 12cf 5a4e 9011 e63f e3d9 58d6 9e5c a3bf
00000170: 6979 57a5 4be9 cb3f 37f0 47b3 baf6 cc3f
00000180: 0ea9 e4e2 cd76 95bf 1cfb 55a7 a5bf a83f
00000190: fbdd 7507 f9a5 9bbf 1acd d615 dfba 98bf
000001a0: 6d9d 7e5a a91c 6abf 6991 34c8 56b6 96bf
000001b0: 0a0d 5311 b167 91bf 7fc6 6d28 c8ee a5bf
000001c0: c079 daa6 01f4 d4bf 5d0e f4f4 f631 d43f
000001d0: c292 57a5 3383 d0bf 37ce 2e61 23a8 0b40
000001e0: 6467 61cf 815e e53f 4647 6082 d7cb cc3f
000001f0: 9523 dc3f 0a65 cebf cde6 8663 9cbc dbbf
00000200: 33c2 36bb 988b a43f ba81 4225 efd8 bfbf
00000210: ecb3 ea63 0d2c 98bf 825d 35f7 e820 b1bf
00000220: 7c57 3e42 626e d3bf a98a 8051 2468 cfbf
00000230: fc2c d066 4ceb 93bf 910b ae75 b83e b43f
00000240: a009 0c92 0130 db3f e636 f9fa e2f1 db3f
00000250: f6c2 4dc5 fc10 e83f 4b6f 696b dd43 07c0
00000260: f106 42e8 ff1b c6bf f9bb 0233 38b5 aabf
00000270: 6cfa f3cf e700 ef3f 025c bd35 d844 fb3f
00000280: c54f 6f47 6776 fa3f 1fa0 d440 3d4d 0440
00000290: 7244 c474 d0e6 f43f f856 af29 02ff ffbf
000002a0: 5024 e0d7 0042 d43f b86c 484c 3282 b2bf
000002b0: e21d 4713 b781 ee3f 01cc 8ae4 0720 f43f
000002c0: 35ae b225 1cd4 cbbf fa98 1b48 b7a7 a2bf
000002d0: ec7a 182e d56f c6bf e9e4 dc2a d593 9f3f
000002e0: 9784 5f0e 104a a6bf f264 9edb 596d b0bf
000002f0: 1697 8a3e 4f55 b7bf 9d7e 425b 4198 a3bf
00000300: 4a94 1445 2b92 ca3f 4ddf 07af 58fc e4bf
00000310: 0dce cee6 2a80 c3bf 348a 2d2b bed0 c93f
00000320: 70b8 e9b3 f260 eebf 1b8f e7bc ed61 f0bf
00000330: 9868 682e 5f51 b63f cfc3 7d11 1598 94bf
00000340: ccac 8eeb 67cb a1bf c62b 3e0a 37ff f23f
00000350: d693 f863 6cbd dabf 8bbb 8563 70d4 b03f
00000360: b285 434d 3c8a d23f 58e3 8176 4c1b f33f
00000370: c1f1 1931 d08d dcbf 7576 1c8d e4df d2bf

arr_3 f8 [3]
0.9185179683055769 0.666664410476036 -1.6841844263859533
00000000: 6a25 55cb 7f64 ed3f aeda 0c9a 5055 e53f
00000010: bc29 7c5e 6bf2 fabf

arr_2 f8 [8, 3]
1.4088289805204968 0.19262961945433693 0.22058299375322118 4.948589980747213 4.974170990519913 5.0249289766419825 3.0147308365548176 4.199675056012335
4.205746109070358 -0.8058016598079292 0.23764048806357901 0.5016874918601182 -0.7788061692045359 0.6888614086480491 0.6784078734205228 -0.4567906280560994
-0.35126361156431374 0.7126344268035196 3.392604799611174 3.3064423084846335 3.271904835376954 0.3042305741749752 0.3108048954563809 0.22655643914745724
00000000: 81e1 cf41 908a f63f 020e e65d 16a8 c83f
00000010: 5ba7 1c44 103c cc3f 7e7d 022c 5bcb 1340
00000020: d5fa 8314 8de5 1340 aa99 4dfb 8619 1440
00000030: 1ef7 6933 2b1e 0840 8c99 2d9e 77cc 1040
00000040: 1cf2 a61b afd2 1040 9a00 fe8f 20c9 e9bf
00000050: 6a22 38e6 006b ce3f 463f 4bed d20d e03f
00000060: 3f02 55ea faeb e8bf ead5 b314 270b e63f
00000070: ea14 b66d 84b5 e53f 20b2 27c2 0e3c ddbf
00000080: 8863 fc5e 1a7b d6bf 8cfe a3b6 e6cd e63f
00000090: 38a9 34fc 0d24 0b40 ff6a 6806 9873 0a40
000000a0: d78b 3c71 dc2c 0a40 a996 a183 8378 d33f
000000b0: acff 5a37 3ae4 d33f d713 6b28 cdff cc3f

arr_5 f8 [1]
250.06892070393928
00000000: f82d 3199 3442 6f40

arr_4 f8 [11, 1]
2.1507741122344366 7.533250140192902 2.928760460608587 1.1876892836062312 3.9449806820337403 -0.28699853849113804 2.428952264332468 0.8053832518469372
0.023054903950561423 0.007150247152910455 0.06648604827606415
00000000: ef0a c90e c934 0140 1ddd 2253 0c22 1e40
00000010: e10d e1f6 196e 0740 fa5f 6e7a c600 f33f
00000020: 577e 2508 528f 0f40 596e 341e 2f5e d2bf
00000030: 25d3 5686 7e6e 0340 21b8 ed18 b3c5 e93f
00000040: c09a eb69 b49b 973f 7a8e e1da 9349 7d3f
00000050: b568 fcca 3a05 b13f
