agent_params_nolimit/initial-poker-params.npz (npz, 2308 bytes, 6 tensors)

arr_1 f8 [8]
00000000: ea23 7ae5 5976 b53f 31e8 aba7 60b1 d5bf
00000010: 19ac d532 91d3 b7bf 567d a8f8 37b9 b33f
00000020: aac7 f8fc 7a01 e0bf 9aca aa70 a6d9 e1bf
00000030: f1d5 750a 7200 943f 8a8b a913 8f49 a5bf
0.08383714535206335 -0.3389512669961077 -0.0930720090015459 0.07704496212726517 -0.5001807156424907 -0.5578186226396895 0.019532949341245446 -0.04157683482187398

arr_0 f8 [14, 8]
00000000: bb25 2cee bbab b0bf 6ef1 6db3 2d5f b73f
00000010: 9e59 dfa8 6e23 cbbf 9b22 5ab2 4375 b83f
00000020: 6e12 e7a8 c081 c63f 4d17 613a 1430 e23f
00000030: f1b0 f4c1 820e c2bf a843 e61a 91d1 d7bf
00000040: b0bd a52d 780f cbbf 43fc b5d2 5a02 ec3f
00000050: 0ccf 4f6c 7275 ccbf 67ec 29ce 3ec1 f63f
00000060: aa5f e597 974e ee3f 2fbe b878 10ae fa3f
00000070: 4d91 210b bf3a d5bf d213 20af da88 e3bf
00000080: 4087 b947 ed90 e6bf bc63 ab68 e710 ecbf
00000090: 191e 049d 7c54 f3bf 2193 d962 ae3b cbbf
000000a0: 1d9b df31 532e c93f b7d3 6ef4 3260 84bf
000000b0: 4bd2 0d51 01b9 d2bf d731 3ae7 0b46 e5bf
000000c0: a2f8 42f6 67d0 edbf b654 91e2 0dd1 e33f
000000d0: c417 ce8a 935e c53f c2c8 a2c6 b37c f13f
000000e0: a899 3b37 7f14 c53f aa20 a494 e852 9ebf
000000f0: aade 097e e129 e3bf 7701 c347 a44c dbbf
00000100: fda7 1e0c d752 aabf c496 a40c 001f b03f
00000110: ca8f 7fcf 3f8b d23f 52e0 21bd 9918 e9bf
00000120: afad 1189 9827 8f3f c406 c468 bd07 91bf
00000130: c24d 2ea7 c136 9e3f eba8 5edc 1ac4 c1bf
00000140: e3b8 ec36 b1bc b83f 92ad 949d a967 fe3f
00000150: 305e 2e2f 3e8a d73f 8804 40c4 adc3 d73f
00000160: 3ffe b0ae 0510 e63f 18e7 f5d0 4875 a3bf
00000170: 1c36 b026 21e3 cb3f eaac a034 90f0 cc3f
00000180: 79c3 1ed8 21a8 95bf e7ed b8ac fba6 a83f
00000190: 66f8 affc 4cd7 9bbf 85e7 100b 33ec 98bf
000001a0: c470 4f04 49a7 6bbf d4ab 6ebd aae7 96bf
000001b0: 7527 8d06 0599 91bf b4d3 0a23 7207 a6bf
000001c0: 671b 2ee6 16f7 d4bf b66c a0b5 e12e d43f
000001d0: 6934 abe4 4886 d0bf 025a 44b9 c0a7 0b40
000001e0: 9196 b72f f75c e53f f903 b903 adc5 cc3f
000001f0: e266 83be 346b cebf 7488 daa2 b1bf dbbf
00000200: feb4 99c0 ee72 a43f 5508 9122 44e5 bfbf
00000210: 57ce 2459 615d 98bf 1de4 83f4 3d2d b1bf
00000220: 23f9 9181 7771 d3bf f6cd 27d0 4e6e cfbf
00000230: 6747 0a5c a01c 94bf f684 5f78 6332 b43f
00000240: f967 b852 ec2c db3f 3f95 a5bb cdee db3f
00000250: 23f2 a325 720f e83f 80e3 5313 4044 07c0
00000260: 3e4a e966 2a22 c6bf 2ec9 9f2d e2cd aabf
00000270: 9929 4a30 5dff ee3f 9873 e8e5 1244 fb3f
00000280: 5b67 9af7 a175 fa3f ea2b ea98 da4c 0440
00000290: 085c ef24 0be6 f43f 623f 8479 c7ff ffbf
000002a0: a982 8c98 eb3e d43f 53f3 9649 878e b2bf
000002b0: 0f4d 9d73 2c80 ee3f 97e3 b594 421f f43f
000002c0: 82f1 59a4 46da cbbf 2fa6 b842 61c0 a2bf
000002d0: 39be bfac ff75 c6bf 7eca a235 8162 9f3f
000002e0: cc91 fc08 ba62 a6bf 8deb ecd8 ae79 b0bf
000002f0: b11d d93b a461 b7bf d28b df55 ebb0 a3bf
00000300: fd50 6dc6 008c ca3f 20b0 b14e e3fd e4bf
00000310: 5a11 7665 5586 c3bf e746 86ac 93ca c93f
00000320: 4389 9353 7d62 eebf 8577 bc0c b362 f0bf
00000330: fde1 1931 0a45 b63f 3ade b706 69c9 94bf
00000340: 01ba 2be6 11e4 a1bf 5c43 69ba 71fe f23f
00000350: 7d35 4ca3 81c0 dabf f034 3766 1bc8 b03f
00000360: 0be4 ef0d 2787 d23f eefa ac26 871a f33f
00000370: 6893 6d70 e590 dcbf 1c18 70cc f9e2 d2bf
-0.0651204544521055 0.09129605894663026 -0.21201880689359326 0.09553931335734449 0.17583473441313252 0.5683690204830129 -0.1410678336191107 -0.37216594340230325
-0.21140959004286008 0.8752874484488377 -0.22233419693622414 1.4221790364524851 0.9470937697142194 1.6674961772622614 -0.33171058737777487 -0.6104558391967834
-0.7051912690041959 -0.8770634693456638 -1.2081266530457297 -0.2127588255563291 0.19672622618892258 -0.00994911011171405 -0.2925418178122398 -0.6648005977781918
-0.9316901979252814 0.6192693162107819 0.1669487407454523 1.0929448851789378 0.16468801686205592 -0.029613145897230332 -0.5988624059381966 -0.42655283935530214
-0.051413269261800544 0.06297302540459798 0.289749100337073 -0.7842529958716205 0.015212241824165 -0.016631087798492997 0.029505754307661787 -0.13879714737169677
0.0966292151540276 1.9003082423685993 0.3678126774552508 0.37131828465505423 0.6894558345738416 -0.03800418425357871 0.2178689421565857 0.22609140939434919
-0.02114918595879398 0.04814897998263828 -0.027188494608701673 -0.024338529158036266 -0.0033756662473774807 -0.02236811429217396 -0.017185286068787293 -0.043025557305930745
-0.32758114317441883 0.31536143052080534 -0.2581960900395815 3.4569105600342036 0.6675983364081778 0.22478258783124241 -0.23764666845709487 -0.43357506660152656
0.039939366350930414 -0.12459207385930544 -0.02379371744718947 -0.06709658832177508 -0.3038004651388226 -0.24555382884828675 -0.019640451066670474 0.07889386833950937
0.42461689069898473 0.4364504177559247 0.7518854842342687 -2.908325339315013 -0.1729176523682145 -0.05235201651511755 0.9686723654897832 1.7041195851117887
1.6537189170835151 2.5375263163054926 1.3061629717610703 -1.9999460932485467 0.31634035012579403 -0.07248731180784533 0.9531461961836686 1.2576318558696806
-0.21759875321357575 -0.03662399234265156 -0.17547603545198046 0.03064920320384567 -0.043721974942204506 -0.06435673519165004 -0.09133364163527947 -0.038459161980220494
0.2073975533372802 -0.655992177676584 -0.15253703550491587 0.20149465488480375 -0.9495226509427898 -1.0240965363986743 0.08699096392400203 -0.020299569163368704
-0.034943160388014156 1.1871201783835295 -0.41799965807953027 0.06555339093684487 0.28949905739824605 1.1939765463609393 -0.4463437650613771 -0.29510350193629775

arr_3 f8 [3]
00000000: ca54 d87b df57 ed3f 0e0a 904a b048 e53f
00000010: 0c92 3a86 bbf8 fabf
0.9169766825531493 0.6651231247236085 -1.6857257121383808

arr_2 f8 [8, 3]
00000000: e1a9 19f2 aa88 f63f 0351 34e0 eb98 c83f
00000010: 5cea 6ac6 e52c cc3f 96ef 14d8 e1ca 1340
00000020: ed6c 96c0 13e5 1340 c20b 60a7 0d19 1440
00000030: 4edb 8e8b 381d 0840 a40b 404a fecb 1040
00000040: 3464 b9c7 35d2 1040 da6f 6a2f ebcc e9bf
00000050: 6b65 8668 d65b ce3f 06d0 de4d 080a e03f
00000060: 7f71 c189 c5ef e8bf aa66 4775 5c07 e63f
00000070: aaa5 49ce b9b1 e53f a090 0001 a443 ddbf
00000080: 0842 d59d af82 d6bf 4c8f 3717 1cca e63f
00000090: 688d 5954 1b23 0b40 2f4f 8d5e a572 0a40
000000a0: 0770 61c9 e92b 0a40 29b8 c844 ee70 d33f
000000b0: 2c21 82f8 a4dc d33f d856 b9aa a2f0 cc3f
1.4083661515274957 0.19216679046133586 0.22012016476022012 4.948127151754212 4.973708161526912 5.024466147648981 3.0142680075618165 4.199212227019334
4.2052832800773565 -0.8062644888009303 0.23717765907057795 0.5012246628671171 -0.779268998197537 0.688398579655048 0.6779450444275217 -0.4572534570491005
-0.35172644055731483 0.7121715978105185 3.392141970618173 3.3059794794916324 3.271442006383953 0.3037677451819741 0.3103420664633798 0.22609361015445617

arr_5 f8 [1]
00000000: 54f5 d9ba 3d42 6f40
250.07003538675292

arr_4 f8 [11, 1]
00000000: 8845 cd72 6232 0140 69fa 2405 d920 1e40
00000010: 7a48 e55a b36b 0740 2bd5 7642 f9fb f23f
00000020: f0b8 296c eb8c 0f40 9499 12fe 6371 d2bf
00000030: be0d 5bea 176c 0340 83a2 fea8 18bc e93f
00000040: 0ce7 086c 6668 963f aabf 56e3 5b7c 783f
00000050: c8bb 834b 67b8 b03f
2.1496018380063937 7.532077865964859 2.927588186380544 1.186517009378188 3.9438084078056974 -0.2881708127191811 2.4277799901044252 0.804210977618894
0.02188262972251835 0.005977972924867384 0.06531377404802108
