agent_params_nolimit/initial-poker-params.npz (npz, 2308 bytes, 6 tensors)

arr_1 f8 [8]
-0.19241753127677605 0.23694883544879472 -0.0744705310636127 0.052100563853074836 -0.14267112562073028 -0.1651826931723056 -0.40982641173583517 -0.052466840693737124
00000000: 3b62 013e 23a1 c8bf 47f7 89e5 5654 ce3f
00000010: 9218 6f2f 8010 b3bf 9248 b4d3 ecac aa3f
00000020: 11f1 4f25 0c43 c2bf 1427 85dc b424 c5bf
00000030: fb50 dc8e 983a dabf b6de ce09 efdc aabf

arr_0 f8 [14, 8]
0.09320085254626778 0.24634325325910056 -0.52845414502001 0.03896048654148373 0.4209638163017699 0.0009486575036268422 -1.1168039700380283 -0.21154122552533777
0.5066707023659772 -0.33517909699542026 0.10559061104865287 -0.07420058412409045 0.7582145387624626 0.7254077103813011 0.6965701442934845 0.37236052359062
-0.3161392793530398 1.155897292821299 0.18281272696642376 -0.06308049981531298 0.030074898826398966 0.5373053576875547 0.015316081800200654 -0.3025530276671608
0.5123942819568813 -0.2869508442545671 -0.22097778375687374 0.6776381117105604 0.07024070100582265 -0.23480681081130647 -0.11714746833929639 1.5861744875882313
0.045131266612135124 0.018317979143808335 -0.12394888791777219 -0.3014227658585138 -0.01588084088216507 -0.1891668323995313 0.144056139299861 -0.6599729667164141
1.1487527464380338 -0.4155955818389327 0.42792870752002354 -0.04998054524448134 0.24591155422878874 0.23037799181948593 0.22675994703493121 -0.0314752284719377
0.05728998330562314 -0.005644627311742214 0.02659426053787559 -0.008415009186249538 0.025652446506863803 0.013260574944171712 0.10007601789623231 0.0016451886572881515
0.4430511806964475 -0.3692141792733026 -0.19216203821625527 0.022628440722392156 0.5224349117075692 1.0089528390290454 0.11392526299002888 1.5646238128182768
-0.05223310184410185 0.17851476826039112 -0.18582476646093204 0.0560578288895798 -0.12713958688786908 -0.22855602407914966 -0.49366768800093985 -0.09446263940035697
-1.5280022416707797 -1.376976890450849 -2.318972994208571 -0.11020435849537068 -2.1551599861757866 -2.071304768165245 -9.270083511228277 -1.1870003900724975
0.7057054688745232 -1.9840431392782305 1.1200876297007754 -0.2605825800359088 1.0375150218756222 -1.1781582445176657 5.189537682165384 -0.9484582409938404
0.03600371939002015 0.06653601428045264 -0.2837976698211129 -0.3011835338873175 -0.027489231300565044 0.017060620358175974 -0.16061788885838835 0.007967537477129364
-0.3610814427460733 0.48238962753453973 -0.14898695589029834 0.1442622032525865 -0.28691969748418983 -0.3214669370531998 -0.7817492277791669 -0.11829225758403804
0.5421558426486279 -0.31531501346494295 0.24854457579429362 0.0467144640550272 1.1503875393800205 -0.22589053739780096 1.1510970622935346 -0.441340580878978
00000000: 0242 a5d5 02dc b73f 4846 2bfc 2c88 cf3f
00000010: 9e7d c9aa 18e9 e0bf eb57 10ff a0f2 a33f
00000020: 6330 f437 12f1 da3f 92e0 017a ea15 4f3f
00000030: 63b3 f5d6 6dde f1bf 0a8c b16a c813 cbbf
00000040: 651a 107a a536 e03f 287b f906 9373 d5bf
00000050: 81f7 377d fc07 bb3f 6e35 283a cffe b2bf
00000060: 9ec4 ea22 4b43 e83f 6153 0b3b 8a36 e73f
00000070: 5b89 a378 4d4a e63f 5c29 c93b c1d4 d73f
00000080: 1d59 733e a03b d4bf 173d e328 8e7e f23f
00000090: d282 ce4d 6866 c73f c3db b82b 0b26 b0bf
000000a0: f03f 8f4b f4cb 9e3f e579 6701 9b31 e13f
000000b0: da4f 7ab3 095e 8f3f 23b8 c85f 075d d3bf
000000c0: cf30 75b1 8865 e03f 5682 e812 675d d2bf
000000d0: 356d 3001 0049 ccbf dd3d 0a1f 36af e53f
000000e0: 150a ab69 4bfb b13f f303 a84a 260e cebf
000000f0: c393 5361 60fd bdbf 620e df7f f860 f93f
00000100: 489a 4004 721b a73f efe6 67c5 f2c1 923f
00000110: a37e fb43 1dbb bfbf ac75 68b6 824a d3bf
00000120: 3034 e330 1143 90bf 526b 5267 9e36 c8bf
00000130: b25b 8a7b 6e70 c23f a750 89a0 7f1e e5bf
00000140: bb43 528f 4a61 f23f 470f 1736 1e99 dabf
00000150: f05a f416 2f63 db3f 8cc8 85ce 0c97 a9bf
00000160: c482 8fa1 077a cf3f c09a 4aaa 067d cd3f
00000170: 6d63 474e 7806 cd3f 7b9a d769 851d a0bf
00000180: 4a40 5fd9 1c55 ad3f 8f8f 3b1b d21e 77bf
00000190: 99fe 159d 863b 9b3f 5cfc 006a e33b 81bf
000001a0: 5acb 3c8b a244 9a3f 21e5 b03d 5c28 8b3f
000001b0: 2f6d faf7 949e b93f 58b4 a4de 6bf4 5a3f
000001c0: 4de8 e256 f35a dc3f 34b1 4c82 34a1 d7bf
000001d0: 52f4 d502 c498 c8bf 2bd7 72f3 e82b 973f
000001e0: 3553 826b c9b7 e03f ad60 6dbb ab24 f03f
000001f0: bdf9 babe 342a bd3f a48e a9fa b208 f93f
00000200: c8cb 6010 4cbe aabf df04 c469 92d9 c63f
00000210: f846 5e1f 1bc9 c7bf d4f0 879b 9cb3 ac3f
00000220: b0ec da27 1c46 c0bf 64a3 5ce4 5241 cdbf
00000230: fc94 c35b 4098 dfbf 931a eb1a b42e b8bf
00000240: 0e0d 837a b272 f8bf c458 7deb 1808 f6bf
00000250: ce76 93b6 418d 02c0 3f41 9d53 5a36 bcbf
00000260: ba2e d284 c43d 01c0 788c fa3b 0892 00c0
00000270: 1fd4 cf62 488a 22c0 bd35 fb1e f4fd f2bf
00000280: e094 ada2 2395 e63f ccd9 d004 a4be ffbf
00000290: fa80 a301 e1eb f13f 8556 ca8e 62ad d0bf
000002a0: 4808 015a a999 f03f 5575 9b75 bcd9 f2bf
000002b0: 350a 892a 16c2 1440 5f16 d618 c559 eebf
000002c0: d505 a15a 146f a23f 483a 5715 8108 b13f
000002d0: 0c03 a4b3 bd29 d2bf 71f1 084d 9746 d3bf
000002e0: 8761 b615 2326 9cbf b48b f3d9 5678 913f
000002f0: cc50 e681 208f c4bf 22c2 26c7 4851 803f
00000300: 435c f256 f51b d7bf a630 8cbe 78df de3f
00000310: a12a 8a2b 0112 c3bf db66 8212 2f77 c23f
00000320: b375 516f e45c d2bf d5e1 580f ea92 d4bf
00000330: 4a83 dff4 1604 e9bf 0786 b1c1 6648 bebf
00000340: 945b b035 5759 e13f 4043 b105 1f2e d4bf
00000350: 563d 5104 4fd0 cf3f 1ea7 bb4e f5ea a73f
00000360: 42cf b5c3 fc67 f23f ccb9 4c2b fbe9 ccbf
00000370: 9328 d1c0 e46a f23f 6e76 5190 ec3e dcbf

arr_3 f8 [3]
0.5664451494629195 0.7258996381912944 -1.2840180797887244
00000000: 6a79 fd93 5120 e23f 07b7 c6e0 913a e73f
00000010: 07a5 c28a 568b f4bf

arr_2 f8 [8, 3]
0.8640443372745089 0.8696612422562591 0.9056711172198249 0.8684331454085256 0.8381929933051093 0.7901014997953287 0.12631735378881093 -0.19998941519330035
0.11531235673268793 0.21156132572713682 0.00894355769569446 -0.20826415105127075 -1.0730319047016805 0.3719028206943215 0.7113307854546231 -0.6607234558828377
0.3058686644720016 0.35970555518717934 -0.21265630401731372 0.09863749357099535 0.12341699804293361 -0.6951098030498918 0.21853371004312067 0.48951043942501044
00000000: 936a 5c4f 40a6 eb3f 16dc 42d0 43d4 eb3f
00000010: 8082 acfe 41fb ec3f 4f58 c94e 34ca eb3f
00000020: d66a bf1c 7ad2 ea3f 1187 c4f0 8248 e93f
00000030: a058 b8c3 2a2b c03f f793 e6ce 4099 c9bf
00000040: 31d8 fd50 1c85 bd3f ac58 8c07 7114 cb3f
00000050: 0dd0 80fe ff50 823f 7de2 d852 66a8 cabf
00000060: 0622 a480 232b f1bf 5b06 0b7d 41cd d73f
00000070: 964c 85c7 38c3 e63f bcf0 5684 a524 e5bf
00000080: 07d2 b129 5a93 d33f 39fb ed72 6a05 d73f
00000090: c873 855f 5238 cbbf 66fd 0b89 4e40 b93f
000000a0: d169 5da2 4198 bf3f 1f4e e7e9 563e e6bf
000000b0: 52b8 daa0 e9f8 cb3f 7362 1898 2354 df3f

arr_5 f8 [1]
1.3979375978383832
00000000: d508 89d0 f35d f63f

arr_4 f8 [11, 1]
0.06225066261466485 -0.04017223901104678 0.1671161778238374 -0.3914882401433757 0.19510306392372234 0.1422229634266737 0.45537172753515 0.2717885168318837
0.9035955295794715 -0.6182931889698725 -0.470858895856696
00000000: 632b 2ba0 51df af3f 99e2 84a9 7491 a4bf
00000010: 3d65 311b 1064 c53f 18cd 0bb1 240e d9bf
00000020: b06d 731f 23f9 c83f bb31 54b0 5c34 c23f
00000030: e255 5275 cf24 dd3f 8d29 cea9 fb64 d13f
00000040: 5461 0b2c 41ea ec3f 83e2 3ecc 0ec9 e3bf
00000050: 2d0d af59 8d22 debf
