agent_params_nolimit/param-1000.npz (npz, 4199 bytes, 12 tensors)

arr_1 f8 [5]
0	0x3ffbf45f0e59a320	1.7471609650185158
1	0x3ffb8b9ef2b0d63e	1.7215871315105598
2	0x400205a9a63bc6f3	2.2527649867050683
3	0x4000f9ee2fc9b651	2.1220363362724943
4	0x3ff31650ae0ec9cc	1.192948036111022

arr_0 f8 [9, 5]
0	0x40117cc79fe1b9c5	4.371855257179452
1	0x401158bfaa83a043	4.33666864803678
2	0x4016d3c25593a4df	5.706796013962246
3	0x40131fbc856e7095	4.780992588868817
4	0x4011a08baaa9093e	4.406782785956521
5	0x3ff0a22129478cdd	1.0395824062805368
6	0x3ff080e5caa110bc	1.031469146270907
7	0x3ff51302d4a04be9	1.3171413713177975
8	0x3ff443632dfb6d81	1.266452006929143
9	0x3fe5f04efc730810	0.6855845385218817
10	0x401493ce68840b5f	5.14434207254348
11	0x40145304c0bb6a33	5.081072818220991
12	0x401ac1e3dbb8bf43	6.689345772887296
13	0x40158d1a74d6d94d	5.387796235669453
14	0x4016cc3e6bd748ef	5.699456868185947
15	0x401274668d37a213	4.613672453423095
16	0x401241a1e3d34e7e	4.56409412362302
17	0x401839694a7b260f	6.056065715567015
18	0x4013ddbbc8c73e68	4.966536652718425
19	0x40138dd4b92ab2a9	4.888506787520478
20	0x40190a3236c7e6c0	6.259957176161777
21	0x4018da2e41f107b3	6.213067083679493
22	0x401eac7ad19485f3	7.668437266054286
23	0x4015ece20a3e05bb	5.481331024203821
24	0x4019af4c9320a98a	6.421190546864077
25	0x3fdf506c384090d5	0.489283614095496
26	0x3fdf8a4fd0661c26	0.4928168807168184
27	0x3fe38d21ea3dbfae	0.6109780859969669
28	0x3fe0f918c1f848f7	0.530407313201322
29	0x3fd9c7a71a509b78	0.40281083650409455
30	0x3f752745e131b520	0.005164406745376909
31	0x3f8b1ad5d30afafc	0.013234777930276824
32	0x3f7aab79796cd085	0.006511187085198715
33	0x3f91dd659d413b7e	0.017446124766418596
34	0x3f7ea150c8dd3802	0.007478061261123161
35	0x400b63533705a2be	3.423498563632477
36	0x400b28e15fa8b827	3.3949611161579187
37	0x4011e48574c49f87	4.4731653447160005
38	0x400e69ff76888c31	3.8017567882939365
39	0x4006d65f3ed59cad	2.854673853773042
40	0x40074d9fc297c8c4	2.912902374512756
41	0x40071562f70391d4	2.8854426668133133
42	0x400e57fe84d11b15	3.7929659248651526
43	0x400aba5d8a135268	3.3409987246653152
44	0x40021076f0352bca	2.2580393568254964

arr_3 f8 [3]
0	0xbfd53e2ef5623856	-0.33192037547349196
1	0x3fd32447bff1a234	0.2990893721057859
2	0x3fb5affe21dd922e	0.08471668555063935

arr_2 f8 [8, 3]
0	0x3fadfc22a715f3df	0.05856426515217782
1	0xbfb21256bb74fb10	-0.07059232784829939
2	0x3f93331fd18b5e82	0.018749711193633896
3	0x3fdabd49603cc977	0.4178031387156333
4	0x3fda4a1e8d9d6ac4	0.41077388600903597
5	0x3fdacf3865efc988	0.4188977237201006
6	0x3fda137e010c9f27	0.4074397096869568
7	0x3fd7bdc85729ebfe	0.3709584094246451
8	0x3fd6ca8d9ef31ffb	0.35611286661560343
9	0xbfc719e75b8f5203	-0.1804780194348866
10	0x3fb35273ac7371a2	0.07547686538914047
11	0x3fbaf61d04c1b2cc	0.10531789175156375
12	0x3fc795c2d0746186	0.18425784281204133
13	0xbfc572b0c08cc3ee	-0.16756257440422878
14	0xbf6a867fd50be935	-0.003237962410250673
15	0x3fdc78fcb6c66f85	0.44488447045454677
16	0x3fdca3fe680c3da1	0.4475093856899211
17	0x3fdcddc86b8b080b	0.45103655340437915
18	0xbfc1ce054002501b	-0.1390997469467273
19	0x3fb6cc85f908f81f	0.08905827836949286
20	0x3fb0875eeacc25aa	0.06456559402808773
21	0x3fd9b874b1c7814f	0.40188329087506686
22	0x3fdb917bf7aa079e	0.43075465379672007
23	0x3fdcc749313173c0	0.44966344646473644

arr_5 f8 [5]
0	0x3ffbf45f0e59a320	1.7471609650185158
1	0x3ffb8b9ef2b0d63e	1.7215871315105598
2	0x400205a9a63bc6f3	2.2527649867050683
3	0x4000f9ee2fc9b651	2.1220363362724943
4	0x3ff31650ae0ec9cc	1.192948036111022

arr_4 f8 [9, 5]
0	0x40117cc79fe1b9c5	4.371855257179452
1	0x401158bfaa83a043	4.33666864803678
2	0x4016d3c25593a4df	5.706796013962246
3	0x40131fbc856e7095	4.780992588868817
4	0x4011a08baaa9093e	4.406782785956521
5	0x3ff0a22129478cdd	1.0395824062805368
6	0x3ff080e5caa110bc	1.031469146270907
7	0x3ff51302d4a04be9	1.3171413713177975
8	0x3ff443632dfb6d81	1.266452006929143
9	0x3fe5f04efc730810	0.6855845385218817
10	0x401493ce68840b5f	5.14434207254348
11	0x40145304c0bb6a33	5.081072818220991
12	0x401ac1e3dbb8bf43	6.689345772887296
13	0x40158d1a74d6d94d	5.387796235669453
14	0x4016cc3e6bd748ef	5.699456868185947
15	0x401274668d37a213	4.613672453423095
16	0x401241a1e3d34e7e	4.56409412362302
17	0x401839694a7b260f	6.056065715567015
18	0x4013ddbbc8c73e68	4.966536652718425
19	0x40138dd4b92ab2a9	4.888506787520478
20	0x40190a3236c7e6c0	6.259957176161777
21	0x4018da2e41f107b3	6.213067083679493
22	0x401eac7ad19485f3	7.668437266054286
23	0x4015ece20a3e05bb	5.481331024203821
24	0x4019af4c9320a98a	6.421190546864077
25	0x3fdf506c384090d5	0.489283614095496
26	0x3fdf8a4fd0661c26	0.4928168807168184
27	0x3fe38d21ea3dbfae	0.6109780859969669
28	0x3fe0f918c1f848f7	0.530407313201322
29	0x3fd9c7a71a509b78	0.40281083650409455
30	0x3f752745e131b520	0.005164406745376909
31	0x3f8b1ad5d30afafc	0.013234777930276824
32	0x3f7aab79796cd085	0.006511187085198715
33	0x3f91dd659d413b7e	0.017446124766418596
34	0x3f7ea150c8dd3802	0.007478061261123161
35	0x400b63533705a2be	3.423498563632477
36	0x400b28e15fa8b827	3.3949611161579187
37	0x4011e48574c49f87	4.4731653447160005
38	0x400e69ff76888c31	3.8017567882939365
39	0x4006d65f3ed59cad	2.854673853773042
40	0x40074d9fc297c8c4	2.912902374512756
41	0x40071562f70391d4	2.8854426668133133
42	0x400e57fe84d11b15	3.7929659248651526
43	0x400aba5d8a135268	3.3409987246653152
44	0x40021076f0352bca	2.2580393568254964

arr_7 f8 [8]
0	0x3f9c3d15e1168f1f	0.02757677255944124
1	0xc005a38e1bac210f	-2.7048608934311527
2	0xc0066ddbfb0394d3	-2.8036422358005466
3	0xbfb78549dbaaae7e	-0.09187757122952608
4	0x3f902449f4935dc1	0.015763431122506114
5	0xc001171ac3b2e4af	-2.1362815178841497
6	0xbfc5d80e53fd015e	-0.1706560049151546
7	0xc0056873656d4af8	-2.676001350782254

arr_6 f8 [12, 8]
0	0xbf93e032f63a5425	-0.019409939077906686
1	0x3f9fd273cfe4a572	0.031076249660292495
2	0x3f95d35b0d1ab22f	0.02131407039148508
3	0xbfaeeaa30ec876d7	-0.06038388781983677
4	0xbf85e2e24c8c7253	-0.010686653100088572
5	0x3f94a1f3b2381eb0	0.020149047615659554
6	0xbfb02a1f349b6d07	-0.06314272913316553
7	0x3f91ae8428bf8464	0.017267289149348733
8	0xbf9215e0cbeb8a91	-0.017661583372396598
9	0x3fa0c2e74808e20e	0.03273699526147676
10	0x3f9401392ba82df1	0.019535916604622675
11	0xbfa2cc20dcbc8ca8	-0.036713625855804566
12	0xbf87b049931e0fd5	-0.011566710283439289
13	0x3f901c43ce280476	0.015732821901114545
14	0xbfb4fc8d9e48e736	-0.08197865595221007
15	0x3f98c81faddd7043	0.024200911509396638
16	0xbf94640839254537	-0.019912842262163024
17	0x3fa24922abefb941	0.03571422909577616
18	0x3f96fd07cf36a08f	0.022449609777738074
19	0xbfb491c278c9eb2a	-0.08034911583847007
20	0xbf87b196119a78db	-0.011569187557423912
21	0x3f86349c8134c855	0.01084253567987418
22	0xbfa684e91a7598da	-0.04398277709951666
23	0x3f94aac548766f84	0.020182688281792163
24	0x3fa65d04dc957cad	0.04367842858004543
25	0xc005b5cecf70773a	-2.7137733656117264
26	0xbff92cd8a2b1ad2e	-1.5734487872349052
27	0xbfc5d232371f7a5d	-0.17047717753935646
28	0x3fa18cd6e2096ed6	0.03427764424551831
29	0xbffa9216234d3ee7	-1.6606656435941944
30	0xbfd4e75ca9b54bbd	-0.3266212136560929
31	0xbff6b9b3756c1d8c	-1.420337160759888
32	0x3f8a06c6fab6f4e5	0.01270823910351244
33	0xc0057e90c12f9829	-2.686799535050359
34	0xbffa42b0c18bd6d7	-1.6412818489456436
35	0x3fa9c8dd461071a4	0.05036059837604803
36	0x3f987b9919b30803	0.02390898913723306
37	0xbffbd6433b880a0e	-1.7398102117009588
38	0xbfa344ae6e21925e	-0.03763337225317252
39	0xbff95ec9c740d387	-1.5856416495637136
40	0x3f90ac8af936c67e	0.016283198796094293
41	0xc001a8368952ea35	-2.207135269968854
42	0xc00a412cf61de66f	-3.281824038302879
43	0xbfa8260d84f46c72	-0.04716531990035201
44	0x3f3f09b016395527	0.00047359990114633144
45	0xc000b3752c0da930	-2.0876258317631695
46	0xbfb8c948ecf2083d	-0.09682136330414522
47	0xc00917cb24611cb0	-3.1366179315696954
48	0x3f7aca1453890d4f	0.006540374183319499
49	0xc001abcbd8133d8d	-2.20888489540784
50	0xc00a50a62f4b7cf0	-3.289379472247326
51	0xbfa70e5a78569dda	-0.045031382741679685
52	0x3f82fcebb52a798f	0.00927147051453117
53	0xc000b3cbd237997e	-2.087791101762547
54	0xbfb7a5c41d1b929b	-0.09237313948285435
55	0xc00918cd51d8bde9	-3.1371103662747726
56	0xbfb10bf628fb1b0d	-0.06658876896390727
57	0xbfd1dc06c9ec1644	-0.2790543529411915
58	0xbf9f03749aed3806	-0.030286619144412462
59	0x3f9275878514f8d3	0.01802646398322667
60	0xbfb964e3f846e5cb	-0.09919571696709466
61	0xbfb2f4f75d86295d	-0.07405038865377862
62	0x3f9f7fc67ef86252	0.03076086187329203
63	0xbf869ad0213da035	-0.011037469877649734
64	0xbfb0fa422583f851	-0.06631863990694
65	0xbfd19fe824b043a9	-0.27538493712296
66	0xbf9936d37e630116	-0.024623207654031885
67	0x3f8f15c50be39797	0.015178241181683023
68	0xbfb95664b8e7d148	-0.09897450937552776
69	0xbfb283b3859fbcdb	-0.07232210171035851
70	0x3f9ffc6f8fc13c42	0.031236403607462167
71	0xbf917f5227b3f6d2	-0.017087253258970155
72	0xbfb06833a2a920e8	-0.06408999177176933
73	0xbfcc1080a0413255	-0.2192536146634604
74	0xbfb4c555e3446877	-0.08113610075489129
75	0xbfa0bcf72da6b321	-0.0326916926600005
76	0xbfb70962b1bac8d5	-0.08998696173765393
77	0xbfb2ad640a835fa2	-0.07295823342008004
78	0xbfaef2d9ef0d2743	-0.060446558409764005
79	0xbfa20acaaa44505d	-0.0352385838361051
80	0xbfb60c0e0b8ca4cc	-0.08612144262282867
81	0xbfd29e4df11094de	-0.2909121374271545
82	0xbfaf29f8e5f8eca3	-0.06086709792403979
83	0xbf3f2a5ee6fead8b	-0.00047554795218714894
84	0xbfb945c3bd10397f	-0.09872077337079153
85	0xbfaadfdba1edef7a	-0.05248915054013899
86	0xbfa78877f216be2d	-0.04596304731546428
87	0xbf98907e8de409a2	-0.023988702211690367
88	0xbfd026fbdecdbc3f	-0.25237938650292685
89	0xbfb257d8854339b3	-0.07165292027932572
90	0xbf9b4333829ed9da	-0.026623539779132212
91	0xbf91666b3277c807	-0.016992258982959665
92	0xbfbd1cef54e25291	-0.11372276136746452
93	0xbfba8b4c7940d2e3	-0.10368802986415519
94	0x3fc239713e466d47	0.14237800160194977
95	0xbfb0a95a89d5056d	-0.06508413186113211

arr_9 f8 [3]
0	0xbfd53e2ef5623856	-0.33192037547349196
1	0x3fd32447bff1a234	0.2990893721057859
2	0x3fb5affe21dd922e	0.08471668555063935

arr_8 f8 [8, 3]
0	0x3fadfc22a715f3df	0.05856426515217782
1	0xbfb21256bb74fb10	-0.07059232784829939
2	0x3f93331fd18b5e82	0.018749711193633896
3	0x3fdabd49603cc977	0.4178031387156333
4	0x3fda4a1e8d9d6ac4	0.41077388600903597
5	0x3fdacf3865efc988	0.4188977237201006
6	0x3fda137e010c9f27	0.4074397096869568
7	0x3fd7bdc85729ebfe	0.3709584094246451
8	0x3fd6ca8d9ef31ffb	0.35611286661560343
9	0xbfc719e75b8f5203	-0.1804780194348866
10	0x3fb35273ac7371a2	0.07547686538914047
11	0x3fbaf61d04c1b2cc	0.10531789175156375
12	0x3fc795c2d0746186	0.18425784281204133
13	0xbfc572b0c08cc3ee	-0.16756257440422878
14	0xbf6a867fd50be935	-0.003237962410250673
15	0x3fdc78fcb6c66f85	0.44488447045454677
16	0x3fdca3fe680c3da1	0.4475093856899211
17	0x3fdcddc86b8b080b	0.45103655340437915
18	0xbfc1ce054002501b	-0.1390997469467273
19	0x3fb6cc85f908f81f	0.08905827836949286
20	0x3fb0875eeacc25aa	0.06456559402808773
21	0x3fd9b874b1c7814f	0.40188329087506686
22	0x3fdb917bf7aa079e	0.43075465379672007
23	0x3fdcc749313173c0	0.44966344646473644

arr_11 f8 [1]
0	0x3f68d40859879097	0.0030307925301134675

arr_10 f8 [8, 1]
0	0xbf8c7a60e3a6db09	-0.01390529341447923
1	0x3f835463e02eadf3	0.009438305167200211
2	0xbf91714c228666a9	-0.01703375778888608
3	0x3f912d5fec277ba1	0.016774653233251894
4	0xbf81f2b8cca2ef8f	-0.008763736481675525
5	0x3f8144b8ea20bce5	0.008431858677879276
6	0xbf76d1fbdcf888b9	-0.005571349945542697
7	0xbf9254cfb7bfd68e	-0.01790165480630051
