agent_params_nolimit/param-1000.npz (npz, 2574 bytes, 6 tensors)

arr_1 f8 [5]
-0.03692738084158263 -0.004069780395172718 -0.01849246595480001 -0.01415429124964756 -0.038985384520719174
00000000: fe43 154a 25e8 a2bf 9acb 2f5b 79ab 70bf
00000010: ba37 fe61 b0ef 92bf 1d53 1fd0 ecfc 8cbf
00000020: ccb2 136f e4f5 a3bf

arr_0 f8 [9, 5]
-0.041041869962905986 -0.06748849802745491 -0.07783124709361948 -0.06335361984522386 -0.06991697097058577 -0.02397879814878655 -0.02551666582552722 -0.024772345352408354
-0.0266198227785828 -0.020260000735989915 -0.05944620180515175 -0.10428709115399985 -0.12389337403663919 -0.08539583409905521 -0.12203787003320017 -0.05183328683209044
-0.08657550055254001 -0.09713032234987376 -0.0786566192781081 -0.09073245141363935 -0.12268722087717247 -0.24673337121047872 -0.2945353654857155 -0.21424826141137163
-0.28089606592679134 -0.030641696989301734 -0.031617512526877556 -0.03244177185005251 -0.0344947809401675 -0.029533558606615978 -0.021254608856375253 -0.01839848729130248
-0.017200470378781543 -0.021774114582764764 -0.02506005074826521 -0.02826598233177473 -0.04743881457557136 -0.04537676171422901 -0.03370384122433761 -0.03747939272254987
-0.030341186864631463 -0.028333467001346615 -0.04038325886767821 -0.028388513897288362 -0.04006742612812918
00000000: 78c5 83a2 7003 a5bf 0653 e21b ed46 b1bf
00000010: dbbd dfa4 bfec b3bf 2486 515d f137 b0bf
00000020: 3e09 c11f 14e6 b1bf ddbc 62e7 e58d 98bf
00000030: 77f7 e474 0a21 9abf e005 89f4 eb5d 99bf
00000040: 898d 0911 3a42 9bbf 8ae2 4fa2 09bf 94bf
00000050: 17c4 3f89 bb6f aebf 2bc2 e60d 8fb2 babf
00000060: 9caf ade5 79b7 bfbf 9c8a ab5a 80dc b5bf
00000070: 1585 aab4 df3d bfbf d176 937f e489 aabf
00000080: 960b 82df cf29 b6bf 3a51 f165 88dd b8bf
00000090: 6ad4 6917 d722 b4bf ddea 81ef 3d3a b7bf
000000a0: 3bf9 4d01 6e68 bfbf 9225 1788 f594 cfbf
000000b0: 15b3 91dc aad9 d2bf 2f4c fead 7c6c cbbf
000000c0: 9fc2 2e7e 33fa d1bf bc1a da79 8960 9fbf
000000d0: 784f 91ac 2b30 a0bf e493 3d3a 359c a0bf
000000e0: a899 0ac8 4ca9 a1bf 1b50 6691 0b3e 9ebf
000000f0: 4fa9 b5a7 c4c3 95bf aa1a d994 0dd7 92bf
00000100: 74bf 0207 009d 91bf 781b 2118 f44b 96bf
00000110: 3b7f 9989 57a9 99bf 6d30 d1f6 c1f1 9cbf
00000120: 2780 537a e649 a8bf 323b 1f77 9f3b a7bf
00000130: 27c0 9d3f a141 a1bf 82da 08bc 7f30 a3bf
00000140: 36bf 3895 c211 9fbf b7c0 9cc8 7203 9dbf
00000150: 3c00 4950 1dad a4bf 8165 15eb e011 9dbf
00000160: 2ede b5b9 b783 a4bf

arr_3 f8 [4]
-3.0444742229326005 -3.3962920567121264 -1.810280254960287 4.268260964696195
00000000: 9215 284d 155b 08c0 fef1 792b 9b2b 0bc0
00000010: 3362 ba6d e8f6 fcbf 7ea7 9800 b312 1140

arr_2 f8 [8, 4]
1.1792673797738773 1.5922263340483966 0.5710184617074465 -0.4970660394900101 0.49193513907712005 0.26376040691804425 0.9486488355864094 -0.2460279588117411
0.2115174318399445 0.10032008915888731 0.2643626204389048 -0.04653743197608212 0.42865336311882246 0.008351388283006756 0.037786164090050756 -0.0938764364899447
0.5328795196100724 0.3304272382855389 1.067767246455885 -0.2451870496233643 0.5145198352688564 0.31476761485567106 1.14164467490883 -0.2179068653278625
0.5696706075317158 0.35874681512652756 1.1530977490765417 -0.22848441241347145 0.038968098067186416 0.017308051759794545 0.08726383651125345 -0.049806148429259955
00000000: 07e5 d578 47de f23f da15 0952 c279 f93f
00000010: 4443 4e82 c845 e23f 27f5 e313 eecf dfbf
00000020: 6cb9 8585 dd7b df3f 6a54 6c54 73e1 d03f
00000030: 716d 87cd 545b ee3f 88c0 7f1a d87d cfbf
00000040: 13ab 24d2 0013 cb3f bdb8 11ce 93ae b93f
00000050: 2e7a 4432 51eb d03f e812 c118 c1d3 a7bf
00000060: bb9b fa83 0e6f db3f c7e7 695c 881a 813f
00000070: 2020 0446 b558 a33f 90de 9640 4908 b8bf
00000080: d6de ad59 590d e13f 1c37 8949 b825 d53f
00000090: b849 b41b 9315 f13f 767d c40b 4a62 cfbf
000000a0: fdef 334d f276 e03f 3048 e910 2725 d43f
000000b0: f62c e634 2d44 f23f 131a 1446 5fe4 cbbf
000000c0: dfea 9ada bd3a e23f 57ce a033 b5f5 d63f
000000d0: d7ff 15a0 1673 f23f e616 7b2b fa3e cdbf
000000e0: b65f 9265 a0f3 a33f fe2b 10b1 33b9 913f
000000f0: 8f77 f03b ec56 b63f d86a 4905 3180 a9bf

arr_5 f8 [8]
-0.2806083601336882 -0.3713508539048986 -2.3270973372928045 0.16526375091111714 -0.4316091291006656 -0.3925166109414401 -0.4414445642447401 -1.4554411750474114
00000000: 5089 70c4 7cf5 d1bf e33e 375f 36c4 d7bf
00000010: 0e40 7235 e59d 02c0 2d53 b0d2 5c27 c53f
00000020: 181d 89e5 7b9f dbbf de55 c8fd fd1e d9bf
00000030: 7a66 9bb3 a040 dcbf 7f49 81af 7c49 f7bf

arr_4 f8 [12, 8]
-0.2272239097333887 -0.571829619134566 -0.042293403713580334 -1.0713158041245898 -0.5863579828589081 -0.6406395875695824 -0.6091933035201312 0.04064722872648737
-0.144449147005449 -0.3746662583046749 0.04652425761995636 -0.8195076923802569 -0.332785321532625 -0.31757762832188996 -0.30277482439946035 0.12160062693496072
-0.24586462418731725 -1.034309829128239 0.34849585445895714 -1.676688070081743 -0.9836925977046678 -1.0686153294128415 -1.0034347694390044 -0.20404854377215442
-0.39668254768043176 -0.7524859001155162 -2.497004711457379 0.2917758914428168 -0.827069260385503 -0.7881138934303235 -0.8430449083845823 -1.5146533810484268
-0.3384704726351543 -0.44884366523141395 -2.1905966598392816 0.020503676061519066 -0.4869770936645621 -0.46034015311978244 -0.48992472721220554 -1.1766586050393357
-0.16241100020669383 -0.20398838941782285 -2.136552563697619 0.0712372205409304 -0.2280038457360764 -0.21328975860489746 -0.22234261791476692 -1.1377982330806644
-0.16005065296247378 -0.20763443231179776 -2.1337755868829666 0.06907136715636197 -0.2273784384396307 -0.21417571541965583 -0.2219602643419086 -1.137751397129983
-0.00013613452834088119 -0.013789576834270664 0.15515966517423854 -0.015093725516659622 -0.015268322487576104 -0.013997498136603457 -0.017761268841793673 0.030718912915997106
0.002936440203100163 -0.0061985469080345626 0.2853453370010363 -0.014308187659601415 -0.013730531613858505 -0.005490047661422706 -0.00672292029560806 0.07355898426711836
0.002380895034841274 -0.008477824333340796 0.33612623955358595 -0.021875196343820937 -0.010237979459709565 -0.0075502216468224395 -0.006936936574870469 0.08953870143220052
0.0007239985575725439 -0.0057064997532946535 0.2491733603827235 -0.01789865021721187 -0.005778352213014276 -0.012445193204112295 -0.008319910059213767 0.061676252273519576
0.0030042455225673236 -0.0030081810624290055 0.3206430273346635 -0.0219747104288309 -0.008153965145195325 -0.011927908743905419 -0.005416585171586345 0.08673759886106958
00000000: e54a 964e ac15 cdbf a825 22a1 6d4c e2bf
00000010: cb9c 9223 7ba7 a5bf ea72 660a 1c24 f1bf
00000020: cc14 04d1 71c3 e2bf 0f4c a497 1e80 e4bf
00000030: 11f5 71f4 827e e3bf 7b49 1bac b6cf a43f
00000040: 7168 2945 4f7d c2bf 4054 952f 88fa d7bf
00000050: 8e93 e509 07d2 a73f 08ff 3232 6839 eabf
00000060: f392 24ce 5a4c d5bf 565c e51d 3153 d4bf
00000070: c442 36a8 a960 d3bf 3dd7 dbfb 3721 bf3f
00000080: a85d 10f4 7d78 cfbf 1b98 a076 888c f0bf
00000090: c856 6c8e c14d d63f d682 a9de b6d3 fabf
000000a0: c2ae 0ee6 687a efbf 9951 3d63 0c19 f1bf
000000b0: a48e e69d 110e f0bf 381f 263f 431e cabf
000000c0: 4e9c 4b32 3f63 d9bf fe4f 764f 5d14 e8bf
000000d0: c056 2d9b ddf9 03c0 7085 e0c9 74ac d23f
000000e0: 9e3e 1cf4 5977 eabf 97ce b9a0 3a38 e9bf
000000f0: 6e46 d250 39fa eabf a50f 062f 053c f8bf
00000100: 324c a80e 80a9 d5bf 6ee2 cbc7 dab9 dcbf
00000110: 75e4 a58a 5786 01c0 a82b 8768 eafe 943f
00000120: e42f ccf8 a12a dfbf a5d8 ab8b 3676 ddbf
00000130: 8333 383e ed5a dfbf 0037 33f9 97d3 f2bf
00000140: bffe 3237 e2c9 c4bf f518 a8a2 4a1c cabf
00000150: 3d21 dade a817 01c0 4032 7b3c 9a3c b23f
00000160: 0e3b 66e2 3a2f cdbf 7acf e32c 144d cbbf
00000170: a7b8 3910 b975 ccbf d972 88eb 6b34 f2bf
00000180: ccb0 1630 8a7c c4bf c7be 26dc c393 cabf
00000190: 0b53 55ef f811 01c0 28ce 063f a9ae b13f
000001a0: 31f6 7496 bc1a cdbf db93 a91e 1c6a cbbf
000001b0: e314 2ea6 3169 ccbf e56c 1acf 3a34 f2bf
000001c0: 0688 b4b1 ead7 21bf 1821 3bac b53d 8cbf
000001d0: fd73 ca9b 45dc c33f 6936 c08b 75e9 8ebf
000001e0: 27ca fd8d ff44 8fbf 45bf c765 b8aa 8cbf
000001f0: 4c6e 3e93 0230 92bf d21b 5f59 c774 9f3f
00000200: 467b 7254 290e 683f ff2e 0bc4 a563 79bf
00000210: 3f13 9f16 1943 d23f 0810 8170 9c4d 8dbf
00000220: fddd e7c1 c01e 8cbf 9075 8c72 bb7c 76bf
00000230: 011e da2c 7e89 7bbf a716 c1f7 c2d4 b23f
00000240: da4e ea49 1981 633f 1101 0652 d25c 81bf
00000250: 7f72 8da1 1783 d53f 1aa8 8f93 7366 96bf
00000260: 650f a757 a6f7 84bf 317a cf30 fbec 7ebf
00000270: 696f 93bb e769 7cbf 06ab 6022 02ec b63f
00000280: e2a3 4510 57b9 473f a15f 0add b25f 77bf
00000290: 7f69 f0a4 e9e4 cf3f 8e47 4d15 0654 92bf
000002a0: 9382 799c 0aab 77bf fbb8 6e8e dd7c 89bf
000002b0: 953f e16c 070a 81bf efc2 e89c 0794 af3f
000002c0: 5c37 9808 5c9c 683f 8114 13e9 9ca4 68bf
000002d0: a9f0 0555 6a85 d43f 590a 86da 8980 96bf
000002e0: d7fa 0cad 06b3 80bf ddcc b7cf a86d 88bf
000002f0: d1f8 af82 b32f 76bf c81d 716e 6f34 b63f
